IMPROVED DQN/IMPROVED_DQN172.pt (torch, 15712 bytes, 8 tensors)

fc_1.weight f4 [64, 3]
0.3051485 1.070805 0.083778135 0.11514768 -0.81897575 -0.51904553 0.6192315 -1.2702289
0.10456298 0.4762652 -1.065794 0.1858119 1.5224257 1.5397285 0.47330186 -1.0682048
0.8688757 -0.2480786 1.4978106 -1.1667744 -0.29590458 -0.61608064 0.38394782 0.1636993
-0.624826 -0.8238009 -0.20218346 -0.29774636 -1.1816224 -0.19943556 -1.1153011 1.4161912
0.02474266 0.43061444 -1.7516149 -0.31161726 -0.8466131 -0.26916647 -0.23541108 0.85245275
-1.1580238 -0.33417222 -0.6836812 0.8927118 0.5737161 -0.22754194 -0.729758 -0.034237944
-0.052664537 0.9789311 0.5163357 -0.8054613 1.3413597 0.06951397 -0.7735306 1.3487557
-0.013334959 -0.31453466 -0.5326654 0.31824404 -0.9456322 0.5660438 0.25437686 1.0974735
1.3043543 0.035699997 -0.009171197 -0.541094 0.02762296 -0.11355116 0.22525783 0.36194998
0.43374062 -1.9313457 -0.44130167 -0.8007786 -0.081412435 -0.21937081 -0.77617985 1.6893133
0.37782216 -0.037936937 -1.8213167 -0.41998968 -0.54564285 0.026347809 0.19733964 -0.6393035
1.6897464 0.38807833 -1.1169553 -0.8348057 -0.15602417 1.6394153 -1.1178933 -0.54532
-0.82099587 0.79341406 0.24490517 -1.1161588 0.30724594 -0.00621447 -0.24850862 -1.9317529
-0.55481243 0.84891415 -0.61656606 -0.3823506 1.1494377 1.3262656 0.34198505 -1.0426687
1.4145029 0.36675003 1.5913804 -0.17766407 -0.3408796 -0.15466814 0.3925637 -0.45962378
-0.6514613 0.097531945 -0.37490627 -0.48024106 0.13905962 -0.103665486 -1.130506 -1.1280285
-0.32898933 1.2617075 0.47993645 0.73354816 0.5500436 2.4068372 0.5043892 -0.80973184
-0.72806 -0.26996043 0.76435083 0.2602946 -0.4607042 0.41756797 0.08755315 -0.0048823245
-0.031703573 1.3497558 0.50914586 -0.30335152 2.7496 0.523162 -0.69672805 0.19039682
0.23919451 -1.1259196 1.2151572 0.28711393 0.6123784 0.50649095 -0.4300065 -1.0912434
-0.8198381 0.17049275 -0.9147849 -0.35074937 -0.26281238 -1.0615891 0.9457411 0.3056194
-0.37730226 -2.03024 -0.3448126 -0.9762511 1.8729913 0.49764726 1.3655537 -0.95630145
-0.19344416 -0.6656477 0.35683513 0.21672079 -0.94093466 0.3051329 0.41544122 -0.2919547
0.13927405 0.29726756 0.013328744 -0.7709487 -0.27685356 0.22002015 0.5913226 0.533801
00000000: 6d3c 9c3e 2310 893f df93 ab3d 8cd2 eb3d
00000010: 65a8 51bf 2be0 04bf f585 1e3f dc96 a2bf
00000020: 1e25 d63d 08d9 f33e f06b 88bf 7a45 3e3e
00000030: d8de c23f d315 c53f 9f54 f23e efba 88bf
00000040: a36e 5e3f 5108 7ebe 42b8 bf3f dd58 95bf
00000050: ce80 97be 76b7 1dbf cf94 c43e caa0 273e
00000060: 99f4 1fbf 9ee4 52bf 2e09 4fbe 3672 98be
00000070: 673f 97bf d638 4cbe 30c2 8ebf c145 b53f
00000080: 1eb1 ca3c 7f79 dc3e eb34 e0bf 4c8c 9fbe
00000090: a3bb 58bf 30d0 89be 9a0f 71be 583a 5a3f
000000a0: 203a 94bf 9f18 abbe bb05 2fbf c388 643f
000000b0: 0fdf 123f c100 69be 6cd1 3abf 163d 0cbd
000000c0: c5b6 57bd 3b9b 7a3f 942e 043f b632 4ebf
000000d0: adb1 ab3f 575d 8e3d 1a06 46bf 07a4 ac3f
000000e0: df7a 5abc b00a a1be c25c 08bf e2f0 a23e
000000f0: f414 72bf 3fe8 103f af3d 823e 037a 8c3f
00000100: 15f5 a63f 293a 123d ca42 16bc 2385 0abf
00000110: 8c49 e23c 838d e8bd fda9 663e 8251 b93e
00000120: 4013 de3e 5636 f7bf 4bf2 e1be d4ff 4cbf
00000130: 90bb a6bd bea2 60be b9b3 46bf 6b3b d83f
00000140: e871 c13e c363 1bbd e820 e9bf e308 d7be
00000150: 40af 0bbf 5cd7 d73c 6713 4a3e 65a9 23bf
00000160: 9c49 d83f 34b2 c63e 64f8 8ebf d4b5 55bf
00000170: cdc4 1fbe 5cd8 d13f 2117 8fbf 179a 0bbf
00000180: c92c 52bf 2f1d 4b3f 6cc8 7a3e 4bde 8ebf
00000190: 574f 9d3e c1a2 cbbb 0b79 7ebe ae43 f7bf
000001a0: 3008 0ebf 7052 593f 46d7 1dbf 75c3 c3be
000001b0: c620 933f 12c3 a93f aa18 af3e 2b76 85bf
000001c0: 6e0e b53f a9c6 bb3e 5ab2 cb3f 92ed 35be
000001d0: c587 aebe 5361 1ebe 1cfe c83e cf53 ebbe
000001e0: 2bc6 26bf d4be c73d b7f3 bfbe 28e2 f5be
000001f0: a565 0e3e 924e d4bd 6cb4 90bf 3d63 90bf
00000200: 4a71 a8be a27f a13f 3bba f53e d0c9 3b3f
00000210: a8cf 0c3f 9f09 1a40 a71f 013f 964a 4fbf
00000220: 2462 3abf 4138 8abe 7fac 433f 5545 853e
00000230: 6ce1 ebbe 78cb d53e 114f b33d e8fb 9fbb
00000240: 9bdb 01bd ccc4 ac3f 6257 023f e450 9bbe
00000250: 72f9 2f40 f2ed 053f c55c 32bf 62f7 423e
00000260: 68ef 743e 221e 90bf 458a 9b3f 9900 933e
00000270: d5c4 1c3f 64a9 013f d029 dcbe ddad 8bbf
00000280: e9e0 51bf a795 2e3e 582f 6abf 6c95 b3be
00000290: 588f 86be 27e2 87bf 171c 723f 257a 9c3e
000002a0: c32d c1be 74ef 01c0 478b b0be 98eb 79bf
000002b0: 2ebe ef3f 9fcb fe3e 77ca ae3f 2cd0 74bf
000002c0: 3a16 46be e367 2abf 18b3 b63e 0eec 5d3e
000002d0: 18e1 70bf 613a 9c3e b6b4 d43e 167b 95be
000002e0: db9d 0e3e 7433 983e ce60 5a3c e55c 45bf
000002f0: c0bf 8dbe f64c 613e eb60 173f 2fa7 083f

fc_1.bias f4 [64]
0.8893996 0.3302017 -0.056623135 0.39777696 -0.7121842 -0.37689576 -0.10981623 0.52872205
0.45721817 0.17726481 -0.14971267 0.12799214 0.9089035 -0.6177767 0.3091402 0.9687098
-0.04158819 -0.12669404 0.02108636 0.683311 0.84593046 0.7355834 0.7259234 -0.5787504
-0.08441638 0.8425674 0.6405589 0.35654375 0.89042896 0.33796316 0.17944239 -1.4618993
0.9611065 0.0942457 -0.12928076 0.31539515 -0.5380104 0.45551732 -0.7394975 0.22432639
-0.9361753 0.5290154 0.91298807 0.10631195 -0.12969732 0.6651203 0.57997996 1.1605071
0.11692381 0.055083517 0.99621755 0.22226232 1.2046613 0.37058955 0.9631574 0.8683842
0.032018572 0.08980745 0.70870876 0.74158907 0.5917317 -0.27186123 0.080975994 0.35472935
00000000: b1af 633f 3210 a93e a9ed 67bd 6ca9 cb3e
00000010: b451 36bf 7bf8 c0be 55e7 e0bd 545a 073f
00000020: 8018 ea3e e884 353e 474e 19be 5f10 033e
00000030: e6ad 683f 9d26 1ebf a047 9e3e 5efd 773f
00000040: 6158 2abd 15bc 01be 4dbd ac3c 78ed 2e3f
00000050: e68e 583f 324f 3c3f 1ed6 393f fc28 14bf
00000060: 7fe2 acbd 7fb2 573f abfb 233f e78c b63e
00000070: 27f3 633f 8209 ad3e bfbf 373e 841f bbbf
00000080: 130b 763f e403 c13d 2d62 04be 797b a13e
00000090: 0dbb 09bf 9139 e93e b54f 3dbf d1b5 653e
000000a0: 2fa9 6fbf 8e6d 073f 96b9 693f 14ba d93d
000000b0: 60cf 04be 5345 2a3f 9179 143f 7f8b 943f
000000c0: c075 ef3d 419f 613d 1d08 7f3f bc98 633e
000000d0: 5732 9a3f eabd bd3e 7c91 763f 6d4e 5e3f
000000e0: e825 033d f8ec b73d f06d 353f c8d8 3d3f
000000f0: bb7b 173f 6531 8bbe bed6 a53d 169f b53e

fc_2.weight f4 [32, 64]
0.155648 -0.32334584 0.1653384 -0.16496062 -0.27594122 0.13901013 0.16761869 0.20604159
-0.015805298 0.5295456 0.07771348 -0.1985366 0.5165147 0.2265685 0.09983412 0.15918066
-0.22653812 0.4633247 0.3184487 0.2485815 0.19198315 0.39959896 0.20329085 0.16935536
0.26552913 0.47252515 -0.10454229 0.040045496 0.27886918 0.32301804 -0.15132001 -1.1221174
0.24630268 0.35389018 -0.30563644 0.3834476 0.2096471 -0.055304855 0.3957073 -0.18638377
-0.0240779 0.19597715 0.38624793 -0.27722892 -0.17157073 0.267624 0.24901369 -0.007031577
0.07562524 -0.14197701 0.3441314 -0.02149228 -0.19997112 0.17547846 0.10447031 0.055195212
0.09416763 0.089321025 0.36853737 0.33528668 0.42531383 -0.17671946 -0.12603804 -0.08993761
0.13245276 -0.07612319 0.32415953 -1.8538202 0.44803664 -0.17095865 -0.16201313 0.24956766
0.31890988 0.024269214 -0.37596133 -0.3969301 0.2443301 -0.16673781 -0.06318995 0.20462532
0.1918437 0.0045475587 0.0227477 -0.5346649 0.30559495 0.6560677 0.23573308 1.572532
-0.2479544 0.24470098 0.08943318 -0.083719015 0.0615955 0.039403785 0.474267 -1.6917343
0.037505526 -0.5638473 -0.13364966 -0.0916109 0.65855265 -0.4461764 -0.59469235 -0.15258405
-0.97191733 0.18040842 0.026199803 0.3026089 -0.07908476 0.26400673 -0.18969862 0.2887904
-0.2909539 -0.49417892 -0.06238308 -0.34330603 0.1835776 0.63073313 0.28396624 -0.0558765
0.3698611 -0.3551399 0.5044092 -0.009472437 0.32035333 -1.0996339 0.1998629 0.13500448
0.2182624 -0.12351013 0.10514892 -0.37928593 0.05764224 0.17933153 -0.1197407 0.43882528
0.19356976 -0.104692645 0.18726957 -0.5296801 0.27906916 0.1594387 0.12967636 0.102812454
0.14305629 0.025230933 0.047923747 -0.30524656 0.38362715 0.14119367 0.1463788 0.36537933
-0.41584986 0.39763704 0.04380786 -0.14991671 0.33006197 0.122994766 0.2825649 -0.60041016
0.18938638 0.13149641 -0.18390991 -0.16579184 0.543006 -0.121162884 0.20497033 -0.29155013
-0.21422824 0.36024874 0.11872463 0.08015436 -0.040508293 0.308104 -0.07042836 0.12693039
-0.043320175 -0.28769508 0.1767885 0.119163744 0.10051007 0.32104567 0.31072044 0.28252038
-0.1820711 -0.19437581 0.07537622 0.36692917 0.14086135 -0.4642524 0.32143214 0.02300101
0.23706396 -0.030838592 0.31079474 -0.44297063 -0.046243675 0.05249172 0.14066118 0.29452685
0.113161534 0.011907504 0.0330609 -0.1272161 0.51723874 0.37339061 -0.070322566 0.0058351867
-0.009359956 0.109833784 0.068854846 -0.24864437 0.24695553 0.31578562 0.18079583 0.6861056
0.077023454 0.37717393 0.2086028 0.08284957 0.29090986 0.1321798 0.1686568 -0.30468994
0.14731638 0.31265175 -0.22919707 -0.07852905 0.590505 -0.06229706 0.29175168 -0.16110428
-0.21317752 0.33157828 0.1525076 -0.02429631 0.12731032 0.19687125 -0.1355454 0.03084401
-0.20874992 -0.056312975 0.24186711 0.08828105 0.03300333 0.28538507 0.26871124 0.16846439
0.08852431 -0.04794387 0.37386227 0.25078315 0.23060127 -0.2926805 0.18531819 -0.15231892
00000000: 3062 1f3e 968d a5be 784e 293e 70eb 28be
00000010: 2b48 8dbe ac58 0e3e 3ca4 2b3e 91fc 523e
00000020: 1d7a 81bc 4d90 073f 3f28 9f3d 2e4d 4bbe
00000030: 4f3a 043f 9301 683e d575 cc3d 4100 233e
00000040: 9cf9 67be e538 ed3e b50b a33e 268c 7e3e
00000050: 3b97 443e 3c98 cc3e 7a2b 503e 7e6b 2d3e
00000060: 6ff3 873e d1ee f13e 451a d6bd bf06 243d
00000070: f1c7 8e3e 9f62 a53e a2f3 1abe 8ba1 8fbf
00000080: c536 7c3e 1831 b53e 617c 9cbe 3e53 c43e
00000090: bbad 563e 5887 62bd 269a ca3e 63db 3ebe
000000a0: 043f c5bc 3cae 483e 4ac2 c53e f3f0 8dbe
000000b0: 3db0 2fbe 0306 893e 72fd 7e3e 2569 e6bb
000000c0: 68e1 9a3d 6c62 11be fe31 b03e 9410 b0bc
000000d0: 3bc5 4cbe a0b0 333e 88f4 d53d 6014 623d
000000e0: f5da c03d f1ed b63d eeb0 bc3e b2aa ab3e
000000f0: bcc2 d93e f2f5 34be 1e10 01be 3631 b8bd
00000100: b2a1 073e 7ae6 9bbd 3df8 a53e fb49 edbf
00000110: 0f65 e53e c90f 2fbe c5e6 25be aa8e 7f3e
00000120: 2848 a33e 3bd0 c63c 017e c0be 6c3a cbbe
00000130: ab31 7a3e 51bd 2abe bc69 81bd 4d89 513e
00000140: ad72 443e b003 953b 6259 ba3c cddf 08bf
00000150: f176 9c3e 0ef4 273f 0364 713e bb48 c93f
00000160: c2e7 7dbe e592 7a3e be28 b73d e074 abbd
00000170: 904b 7c3d dd65 213d 20d3 f23e c08a d8bf
00000180: 659f 193d 4c58 10bf 75db 08be 7f9e bbbd
00000190: e896 283f 3c71 e4be c23d 18bf fe3e 1cbe
000001a0: 93cf 78bf fcbc 383e f8a0 d63c 8eef 9a3e
000001b0: 31f7 a1bd e42b 873e 5b40 42be 56dc 933e
000001c0: e9f7 94be 0505 fdbe 6785 7fbd cfc5 afbe
000001d0: c4fb 3b3e ba77 213f 0664 913e c2de 64bd
000001e0: 6f5e bd3e e6d4 b5be f620 013f 4832 1bbc
000001f0: 5a05 a43e cec0 8cbf dca8 4c3e 9d3e 0a3e
00000200: 2e80 5f3e e1f2 fcbd 5158 d73d c431 c2be
00000210: 451a 6c3d afa2 373e 9d3a f5bd b5ad e03e
00000220: 2737 463e 1969 d6bd 98c3 3f3e 1d99 07bf
00000230: 27e2 8e3e e643 233e e1c9 043e 568f d23d
00000240: 597d 123e 1ab1 ce3c b14b 443d 4749 9cbe
00000250: c76a c43e 1395 103e 53e4 153e 0013 bb3e
00000260: 46ea d4be 1597 cb3e df6f 333d c483 19be
00000270: e2fd a83e aee4 fb3d 59ac 903e 7bb4 19bf
00000280: 81ee 413e ffa6 063e e152 3cbe 56c5 29be
00000290: 7102 0b3f 3f24 f8bd bee3 513e 0f46 95be
000002a0: a65e 5bbe 8672 b83e e625 f33d f827 a43d
000002b0: 06ec 25bd cfbf 9d3e be3c 90bd 0afa 013e
000002c0: 7f70 31bd c54c 93be 0b08 353e 1f0c f43d
000002d0: 39d8 cd3d 1960 a43e c016 9f3e 83a6 903e
000002e0: d970 3abe 740a 47be d95e 9a3d 24de bb3e
000002f0: f53d 103e 7eb2 edbe c192 a43e 9d6c bc3c
00000300: e5c0 723e 37a1 fcbc 7d20 9f3e 0ccd e2be
00000310: 026a 3dbd 8f01 573d 7c09 103e 39cc 963e
00000320: 3cc1 e73d b117 433c de6a 073d f044 02be
00000330: c269 043f 0e2d bf3e 4705 90bd 1835 bf3b
00000340: 805a 19bc 89f0 e03d c503 8d3d a19c 7ebe
00000350: e9e1 7c3e a7ae a13e 8b22 393e 9ea4 2f3f
00000360: 79be 9d3d f11c c13e f99b 553e 09ad a93d
00000370: 23f2 943e 245a 073e 5eb4 2c3e 5200 9cbe
00000380: 1bda 163e e413 a03e a3b2 6abe d7d3 a0bd
00000390: 562b 173f 342b 7fbd 7a60 953e 85f8 24be
000003a0: 354b 5abe a1c4 a93e f42a 1c3e 0e09 c7bc
000003b0: a35d 023e 9e98 493e 6acc 0abe 94ac fc3c
000003c0: 8ac2 55be 6fa8 66bd 03ac 773e b2cc b43d
000003d0: 802e 073d fe1d 923e 8594 893e ee81 2c3e
000003e0: 3c4c b53d cb60 44bd e06a bf3e a666 803e
000003f0: bd22 6c3e 38da 95be 0dc4 3d3e 7ef9 1bbe

fc_2.bias f4 [32]
0.1175803 -0.09991505 0.07371965 0.05460135 0.22766574 0.04265763 0.23715813 0.17980905
0.24078618 -0.45831412 0.20494603 0.21422692 -0.006375345 -0.008591843 0.16667849 0.2340151
0.19406974 -0.40941897 0.12768279 0.35949838 0.33276266 0.05274244 0.17506948 0.31210968
0.19805501 0.3566926 0.45329383 0.24068308 0.14125852 0.23685242 0.32772538 0.014733247
00000000: f1cd f03d 43a0 ccbd 54fa 963d aaa5 5f3d
00000010: 3521 693e c4b9 2e3d 95d9 723e dd1f 383e
00000020: a790 763e 26a8 eabe 5fdd 513e 4d5e 5b3e
00000030: 45e8 d0bb cdc4 0cbc c4ad 2a3e a8a1 6f3e
00000040: 38ba 463e 5d9f d1be 47bf 023e 2c10 b83e
00000050: de5f aa3e 7508 583d 6a45 333e d7cc 9f3e
00000060: efce 4a3e 6aa0 b63e 2116 e83e a075 763e
00000070: 13a6 103e 7189 723e 9fcb a73e b863 713c

fc_3.weight f4 [16, 32]
-0.17988887 -1.9703 -0.4522278 -0.23971264 1.9948931 -1.1725938 -0.26980367 -0.53324366
-0.0628423 0.1476281 -0.23452534 0.66573143 -0.7173868 0.09518244 -0.2814253 -0.36484417
-1.3545432 -1.3834738 -0.21191552 1.5693275 1.9575381 0.74318445 0.37420675 -0.4101478
-0.5653147 -0.066829994 -0.62776196 -0.3874652 0.82810277 -0.8593025 -0.4291695 -0.36646864
0.4243876 -2.923741 -0.30017066 -0.358662 3.5639434 -1.1864513 0.280108 -0.9427868
-0.3545947 -0.018921943 -0.4969291 0.7868334 -0.072948165 0.5407868 -0.29401514 0.29041025
-0.3849935 -1.5956231 -0.045639895 2.719247 3.6223009 0.6716688 0.96611273 -0.07515418
0.024015145 0.37404242 2.3418941 0.25052333 0.64361924 -0.47464666 -0.3399148 -0.062498726
0.08015028 1.5748034 0.3157661 0.29299983 -2.0079157 0.940492 0.068364136 0.67841625
0.30847797 0.02294243 0.16944516 -0.77191675 1.0273607 -1.089108 0.24440035 0.32185093
0.80877477 0.72278 0.27614188 -0.33543697 -1.9350613 -0.4826453 -0.69872457 0.015537197
0.32900137 0.20535861 -1.1117157 0.2417517 -0.5576479 0.68850565 0.13690369 0.30910897
-0.040563952 0.077215694 0.12601954 -0.041766886 3.4308407 0.14652847 0.09631085 -2.7872791
0.00329964 -0.5309808 -0.38205308 0.5314194 -1.2874833 -0.253968 0.12407392 0.01319535
0.8580611 -0.933412 -0.037824504 -0.22646585 2.6097548 1.136122 0.9570279 0.23605105
0.06570152 0.1317344 3.3053381 0.103654854 1.0540843 -0.8008026 0.14918855 0.07120739
0.5048911 1.6460611 0.43049148 0.16913888 -2.1321847 0.5457915 0.4468017 0.9269425
0.29622173 -0.3228652 0.60439116 -0.47977027 0.99589956 -1.1567752 0.24293607 0.31746683
0.61228484 0.26343703 0.13122939 0.3517235 -1.4740518 -0.8795919 -0.8981491 0.18063799
0.2560008 0.43774924 -2.2147083 0.23835713 -0.37695733 0.6432757 0.0033753172 0.1374259
-0.13397287 -1.4108088 -0.06506065 -0.1621882 1.9580705 -0.59180576 -0.18017988 -1.0447505
-0.44489065 -0.10465478 -0.84291416 -0.2247882 -1.132516 0.8356299 -0.024649782 -0.32739738
0.2672 -0.9111174 -0.4022704 -0.71677536 1.1822491 0.32737383 0.78294826 0.06886298
-0.18122014 -0.2755961 1.9383416 -0.13961267 -0.030534564 -0.7506316 -0.12466972 -0.39210075
0.19761881 1.8579047 0.499942 0.3779101 -1.6106359 1.3325982 0.099518 0.60117114
0.28102395 -0.009082547 0.13881561 -0.9187594 0.75627726 -0.76737005 0.26123518 0.2331826
1.2560085 0.51992697 0.25995544 -1.5245302 -1.9864184 -0.8506817 -0.73744893 0.37786153
0.42304564 0.17154825 -0.16118109 0.35347039 -0.8617024 0.6618283 0.41627353 0.3156854
-0.33936694 -1.6303045 -0.37906647 -0.20705809 2.2197866 -1.2335306 -0.32505766 -0.84360373
-0.22998692 -0.050649423 -0.4080256 0.35915166 -0.9202801 0.46747974 -0.12008928 -0.40441653
-0.67761564 -0.47032225 -0.018666763 0.48459324 1.8534672 0.28543818 0.4891089 -0.049584787
-0.02770933 -0.23329057 0.997108 -0.24074605 0.19799751 -0.488744 -0.1898142 -0.2519906
00000000: ca34 38be ca32 fcbf 678a e7be 3b77 75be
00000010: a858 ff3f 8e17 96bf b523 8abe a882 08bf
00000020: 77b3 80bd d22b 173e 6927 70be 606d 2a3f
00000030: a9a6 37bf 03ef c23d fa16 90be dbcc babe
00000040: ac61 adbf ab15 b1bf 6200 59be b9df c83f
00000050: 9c90 fa3f 5641 3e3f 0798 bf3e e4fe d1be
00000060: 77b8 10bf 2ade 88bd 02b5 20bf d761 c6be
00000070: 8bfe 533f 40fb 5bbf 1bbc dbbe c7a1 bbbe
00000080: 5549 d93e 931e 3bc0 f8af 99be 8ca2 b7be
00000090: a617 6440 a3dd 97bf 516a 8f3e 7a5a 71bf
000000a0: 708d b5be 3102 9bbc 7e6d febe ea6d 493f
000000b0: d965 95bd 0171 0a3f 2789 96be a7b0 943e
000000c0: de1d c5be 613d ccbf e6f0 3abd 2508 2e40
000000d0: c7d3 6740 7df2 2b3f 2a53 773f 6fea 99bd
000000e0: 69bb c43c 7d82 bf3e 98e1 1540 9844 803e
000000f0: 3bc4 243f e304 f3be 5009 aebe aafe 7fbd
00000100: d425 a43d 2893 c93f 18ac a13e 1304 963e
00000110: b181 00c0 15c4 703f 7f02 8c3d b0ac 2d3f
00000120: d3f0 9d3e c3f1 bb3c 0883 2d3e 569c 45bf
00000130: 8e80 833f e467 8bbf 1644 7a3e a5c9 a43e
00000140: dd0b 4f3f 1c08 393f 7862 8d3e 65be abbe
00000150: 17b0 f7bf 491d f7be 9ddf 32bf ba8f 7e3c
00000160: de72 a83e 8749 523e b34c 8ebf c28d 773e
00000170: 03c2 0ebf e841 303f 7b30 0c3e 8843 9e3e
00000180: 6326 26bd 4323 9e3d 440b 013e c113 2bbd
00000190: e592 5b40 8f0b 163e 9f3e c53d c862 32c0
000001a0: c63e 583b 5cee 07bf 769c c3be 1a0b 083f
000001b0: 41cc a4bf 1808 82be 781a fe3d 4f31 583c
000001c0: e4a9 5b3f 17f4 6ebf deed 1abd aae6 67be
000001d0: 3906 2740 726c 913f c8ff 743f 5eb7 713e
000001e0: 858e 863d 62e5 063e a98a 5340 ff48 d43d
000001f0: 3cec 863f 6601 4dbf e2c4 183e 2ed5 913d
00000200: 8b40 013f 21b2 d23f 6169 dc3e be32 2d3e
00000210: b775 08c0 feb8 0b3f 31c3 e43e 1b4c 6d3f
00000220: 60aa 973e 964e a5be 61b9 1a3f 73a4 f5be
00000230: 46f3 7e3f 3611 94bf 3cc4 783e 038b a23e
00000240: b3be 1c3f 38e1 863e ff60 063e 1a15 b43e
00000250: bbad bcbf ef2c 61bf 19ed 65bf 2af9 383e
00000260: 8912 833e ab20 e03e c8bd 0dc0 e413 743e
00000270: 8d00 c1be b7ad 243f 6d34 5d3b 60b9 0c3e
00000280: 2f30 09be 6295 b4bf 853e 85bd aa14 26be
00000290: 0ea2 fa3f 9580 17bf 1381 38be 62ba 85bf
000002a0: b5c8 e3be 3f55 d6bd 39c9 57bf e12e 66be
000002b0: 49f6 90bf d7eb 553f 57ee c9bc a1a0 a7be
000002c0: 70ce 883e fd3e 69bf 63f6 cdbe 977e 37bf
000002d0: f053 973f 8b9d a73e 4c6f 483f 0908 8d3d
000002e0: c691 39be ef1a 8dbe 941b f83f a0f6 0ebe
000002f0: 9f23 fabc 6429 40bf d752 ffbd 6ec1 c8be
00000300: 965c 4a3e d2cf ed3f 66f8 ff3e 6f7d c13e
00000310: 5129 cebf 9492 aa3f 18d0 cb3d 5ae6 193f
00000320: 5fe2 8f3e f7ce 14bc ae25 0e3e d133 6bbf
00000330: 639b 413f 5d72 44bf 9ec0 853e 6bc7 6e3e
00000340: e3c4 a03f ef19 053f e118 853e ce23 c3bf
00000350: f542 febf 47c6 59bf 74c9 3cbf 1177 c13e
00000360: 7099 d83e 58aa 2f3e a80c 25be 12fa b43e
00000370: 8798 5cbf 946d 293f ce21 d53e 84a1 a13e
00000380: 81c1 adbe d1ad d0bf 0015 c2be 0907 54be
00000390: fc10 0e40 55e4 9dbf f56d a6be 6af6 57bf
000003a0: b181 6bbe c575 4fbd bbe8 d0be bae2 b73e
000003b0: 7a97 6bbf 8159 ef3e 5ef1 f5bd af0f cfbe
000003c0: 3878 2dbf 14ce f0be 0aeb 98bc 9b1c f83e
000003d0: 6a3e ed3f f424 923e 7b6c fa3e 6b19 4bbd
000003e0: adfe e2bc b9e3 6ebe 7842 7f3f 2286 76be
000003f0: dcbf 4a3e a73c fabe a75e 42be e904 81be

fc_3.bias f4 [16]
-0.44648978 0.5799482 0.24415784 0.48431826 0.22124603 0.13045694 0.3109953 -0.10816719
0.08609602 0.23563547 0.20543265 -0.33022153 0.26176408 0.27466044 0.22663373 0.31911176
00000000: 4f9a e4be 7c77 143f 8304 7a3e 90f8 f73e
00000010: 528e 623e 8196 053e c73a 9f3e c286 ddbd
00000020: 1c53 b03d 6d4a 713e f05c 523e cc12 a9be
00000030: f105 863e 4ba0 8c3e ac12 683e 9e62 a33e

fc_out.weight f4 [15, 16]
0.13626435 -0.99404997 -0.35856822 2.5519536 -0.78824437 0.4670797 -0.06524803 0.36825433
-0.5682448 -0.44331038 -0.5881488 -0.7075753 2.5256765 -0.51646477 -0.3763962 -0.44684723
0.35794622 -0.5634914 -0.33125204 2.314309 -0.6254892 0.7810332 -0.36035806 0.25040454
-0.6200942 -0.17613299 -0.38625488 -0.697743 2.184652 -0.36641625 -0.6927408 -0.41731474
0.15149802 -0.1462452 -0.42486155 2.0328355 -0.6133917 0.19694227 -0.26974994 0.4198612
-0.44243893 -0.2221075 -0.46216023 -0.18927988 1.8704462 -0.21993962 -0.639362 -0.5628879
-0.08345035 0.7043584 -0.4329625 1.5934448 -0.6097721 0.32539794 -0.3344417 0.29665664
-0.6378982 -0.29416445 -0.44720495 0.11443517 1.1348848 0.10726323 -0.4284134 -0.478935
0.48251784 1.2537725 -0.5185278 1.2806022 -0.47649407 0.7161095 -0.51564354 0.7517242
-0.39842936 -0.28624704 -0.4539273 0.24915783 0.71255445 0.27532902 -0.6288344 -0.36117265
0.62039626 2.048712 -0.5989357 0.8702126 -0.5406105 0.33074716 -0.40609613 0.19259576
-0.3609496 -0.6155898 -0.39250478 0.5948374 -0.013786007 0.55502886 -0.38455835 -0.36141443
0.50364256 2.6573443 -0.5359162 0.50649375 -0.46345532 0.47135916 -0.5563735 0.49275318
-0.23475485 -0.5972313 -0.47072157 0.7049668 -0.5975339 0.8172975 -0.41154152 -0.38683578
0.6239875 3.232481 -0.36157826 0.24766599 -0.38688132 -0.19183314 -0.8090781 0.40352556
-0.37231672 -0.52913475 -0.3513091 0.9109855 -1.1482426 1.0157548 -0.4191087 -0.40732196
0.7912871 3.6379356 -0.25965908 0.10978198 -0.13175528 -0.076781854 -0.72007877 0.28983736
-0.4115443 -0.72950184 -0.5906061 1.3076835 -1.5336119 1.1089832 -0.23451799 -0.5182922
0.37999654 2.1354618 -0.6398179 0.75630164 -0.40290245 0.13485658 -0.509904 0.08226752
-0.31210613 -0.3992721 -0.2847155 0.5747585 -0.10799371 0.58615965 -0.58816606 -0.5282474
0.4428369 2.8172247 -0.6172374 0.35800686 -0.5309248 0.32369563 -0.6064251 0.38671386
-0.42592436 -0.4272633 -0.33737546 0.7561658 -0.75395584 0.906162 -0.31748098 -0.40936258
0.8504207 2.6129003 -0.82075363 0.37015066 -0.36687142 0.32056472 -0.4613625 0.29410967
-0.38505015 -0.3302083 -0.38252252 0.8500984 -0.5033887 0.85484284 -0.3526699 -0.61123955
0.6835117 3.4975529 -0.3583181 -0.012177941 -0.61719614 0.76376164 -0.6950342 0.79426044
-0.19792497 -0.52985454 -0.19472863 0.8887577 -1.531245 1.2873898 -0.42136115 -0.59540635
0.39015105 2.6231267 -0.6671227 0.4591469 -0.29203287 0.36923638 -0.4670231 0.09287853
-0.23376071 -0.48192418 -0.38444188 0.88225 -0.4255488 0.7667313 -0.44987527 -0.6882271
0.5737687 2.649065 -0.6081435 0.2765109 -0.51902777 0.5693641 -0.4325364 0.5295141
-0.20396078 -0.48561922 -0.38053608 0.6617384 -0.5843518 1.0122806 -0.30343193 -0.784432
00000000: e288 0b3e 0f7a 7ebf 4196 b7be 3553 2340
00000010: 62ca 49bf 1225 ef3e c2a0 85bd d58b bc3e
00000020: 7e78 11bf 94f9 e2be eb90 16bf a823 35bf
00000030: afa4 2140 0937 04bf 01b7 c0be 29c9 e4be
00000040: ba44 b73e f940 10bf de99 a9be a31d 1440
00000050: 0f20 20bf cbf1 473f da80 b8be 0635 803e
00000060: 7ebe 1ebf 355c 34be 33c3 c5be 499f 32bf
00000070: 57d1 0b40 e99a bbbe 7657 31bf 47aa d5be
00000080: 4c22 1b3e 4dc1 15be 7487 d9be fa19 0240
00000090: 3d07 1dbf 3cab 493e aa1c 8abe 0cf8 d63e
000000a0: 5b87 e2be 2670 63be 44a0 ecbe 96d2 41be
000000b0: c86a ef3f da37 61be 3aad 23bf 6c19 10bf
000000c0: 04e8 aabd d550 343f 43ad ddbe 00f6 cb3f
000000d0: 061a 1cbf 8f9a a63e f13b abbe 61e3 973e
000000e0: 4c4d 23bf b99c 96be 0cf8 e4be fd5c ea3d
000000f0: e843 913f d3ac db3d 0059 dbbe f836 f5be
00000100: 940c f73e 9e7b a03f 3dbe 04bf c6ea a33f
00000110: 08f7 f3be f452 373f 3701 04bf ff70 403f
00000120: effe cbbe f98e 92be 2969 e8be 3b23 7f3e
00000130: f869 363f edf7 8c3e 4bfb 20bf 9feb b8be
00000140: 4ad2 1e3f 191e 0340 da53 19bf 41c6 5e3f
00000150: 7365 0abf b157 a93e d5eb cfbe d337 453e
00000160: 63ce b8be 4b97 1dbf 63f6 c8be 4447 183f
00000170: b4de 61bc 5f16 0e3f d5e4 c4be 500b b9be
00000180: b8ee 003f ee11 2a40 ce31 09bf 93a9 013f
00000190: 044a edbe fd55 f13e 7e6e 0ebf 254a fc3e
000001a0: 9363 70be 27e4 18bf 6b02 f1be b478 343f
000001b0: fbf7 18bf 693a 513f 92b5 d2be 570f c6be
000001c0: a5bd 1f3f f8e0 4e40 c920 b9be 279c 7d3e
000001d0: 4f15 c6be e86f 44be be1f 4fbf e79a ce3e
000001e0: 4ca0 bebe 6075 07bf c9de b3be 5936 693f
000001f0: 9df9 92bf 4104 823f 6a95 d6be 818c d0be
00000200: cb91 4a3f f0d3 6840 09f2 84be 60d5 e03d
00000210: dbea 06be ce3f 9dbd 1557 38bf 9065 943e
00000220: efb5 d2be a2c0 3abf f631 17bf 2c62 a73f
00000230: 654d c4bf 29f3 8d3f 7c25 70be ccae 04bf
00000240: e88e c23e 68ab 0840 1bcb 23bf fc9c 413f
00000250: 3b49 cebe d817 0a3e 1289 02bf e07b a83d
00000260: 60cc 9fbe 656d ccbe 3bc6 91be 6023 133f
00000270: ce2b ddbd 8f0e 163f 0d92 16bf 393b 07bf
00000280: 85bb e23e 694d 3440 4503 1ebf ad4c b73e
00000290: b0ea 07bf 6fbb a53e ad3e 1bbf 5cff c53e
000002a0: c212 dabe 41c2 dabe 7abc acbe 1594 413f
000002b0: 4003 41bf 3cfa 673f de8c a2be f997 d1be
000002c0: 2cb5 593f c239 2740 e91c 52bf 6384 bd3e
000002d0: 92d6 bbbe 0f21 a43e b537 ecbe 8b95 963e
000002e0: 4b25 c5be 1011 a9be fed9 c3be 0ca0 593f
000002f0: 15de 00bf fbd6 5a3f 2691 b4be 327a 1cbf
00000300: 9ffa 2e3f e8d7 5f40 7875 b7be fd85 47bc
00000310: 9100 1ebf e285 433f c3ed 31bf a754 4b3f
00000320: d8ac 4abe 8ca4 07bf f166 47be a085 633f
00000330: d6ff c3bf 30c9 a43f a6bc d7be 8d6c 18bf
00000340: e1c1 c73e 4fe1 2740 8ec8 2abf 4d15 eb3e
00000350: 5585 95be 8d0c bd3e a71d efbe 1937 be3d
00000360: f85e 6fbe c4be f6be 91d5 c4be 23db 613f
00000370: 88e1 d9be 8148 443f 0d56 e6be a72f 30bf
00000380: 81e2 123f 488a 2940 4baf 1bbf d692 8d3e
00000390: 01df 04bf d8c1 113f 6975 ddbe 3c8e 073f
000003a0: 18db 50be 15a3 f8be a0d5 c2be b067 293f
000003b0: 1498 15bf 6992 813f 6e5b 9bbe 89d0 48bf

fc_out.bias f4 [15]
-0.29511192 -0.1785182 0.17372994 0.07864003 -0.0309936 0.029155653 0.086535044 -0.09303996
-0.31573224 -0.3899444 -0.28826416 -0.22606666 -0.26521307 -0.8640768 -0.29191253
00000000: e918 97be 7acd 36be 43e6 313e 060e a13d
00000010: 4ae6 fdbc d6d7 ee3c 4939 b13d bc8b bebd
00000020: a8a7 a1be cba6 c7be 5c97 93be 057e 67be
00000030: 02ca 87be 2334 5dbf 8f75 95be
