DDQN/DDQN776.pt (torch, 15104 bytes, 8 tensors)

fc_1.weight f4 [64, 3]
0	0x3f8b3c11	1.0877706
1	0xbf473135	-0.7780946
2	0x3ef2ef8c	0.47448385
3	0xbec8c7d7	-0.39214966
4	0xbe9197e3	-0.28436193
5	0xbe827ac3	-0.25484285
6	0xbfd0313b	-1.6265024
7	0x3ddfdf42	0.10931255
8	0x3e93ccb2	0.28867108
9	0xbf90ec1b	-1.1322054
10	0x4001bfab	2.0273235
11	0x3ef3892f	0.475656
12	0x3ed6e50a	0.41971618
13	0x3f583c18	0.84466696
14	0x3e9dd5bf	0.30827138
15	0xbc4166ee	-0.0118043255
16	0x3ee132b1	0.43983987
17	0x3e9f5987	0.3112299
18	0x3f09e88d	0.5387047
19	0x3da0df77	0.078551225
20	0xbec3ac6e	-0.3821749
21	0x3e39cdb9	0.18144883
22	0x3eff5ead	0.4987692
23	0x3ec43685	0.38322845
24	0x3f253b39	0.6454349
25	0x3fd9b6ed	1.700895
26	0x3eb9a407	0.36257955
27	0xbf5b3f3d	-0.8564337
28	0xbf555b3f	-0.83342355
29	0xbec37b9c	-0.38180244
30	0x3fa2de8a	1.2724164
31	0xbfd2e389	-1.6475688
32	0xbe8322ed	-0.25612584
33	0xbf14b3cf	-0.58086866
34	0x3f3f4cca	0.74726546
35	0xbe1905b3	-0.1494358
36	0xbfbb7dbd	-1.4647747
37	0xbf813e95	-1.0097224
38	0xbf0745d8	-0.5284095
39	0xbf133e4b	-0.57516927
40	0x3fa35f3b	1.2763437
41	0xbebe9192	-0.37220436
42	0xbf8c00b1	-1.0937711
43	0xbfe18f90	-1.7621937
44	0xbee11c0b	-0.43966708
45	0x3d7a40c0	0.061096907
46	0xbe17b8a6	-0.14816532
47	0x3e5c984b	0.2154247
48	0xbfb105e2	-1.382992
49	0xbfb5bee3	-1.4198879
50	0xbef85a8c	-0.48506582
51	0xbe46d706	-0.19417962
52	0xbf568abe	-0.83805454
53	0xbeb2c549	-0.34916142
54	0x3fa67a51	1.3006078
55	0xbfe57e3c	-1.7929149
56	0xbf2a8942	-0.6661569
57	0x3e4d90df	0.20074795
58	0xbf4a82b6	-0.791057
59	0xbeacecac	-0.33774316
60	0x3fa5fd6d	1.2967964
61	0x3fd09ee8	1.6298494
62	0x3f0ac2f0	0.542037
63	0xbf33bbce	-0.7020844
64	0xbfc941f0	-1.5723248
65	0xbe92f8c5	-0.2870542
66	0xbfc31a10	-1.5242329
67	0xbfce3988	-1.6111307
68	0xbea3f345	-0.32021537
69	0x3f523603	0.82113665
70	0xbfd82e9c	-1.6889224
71	0xbe0a32e6	-0.13495979
72	0xbfa742ee	-1.30673
73	0xbe1bcc06	-0.15214548
74	0x3d997222	0.07492472
75	0xbfe348c2	-1.7756579
76	0xbfc98e1e	-1.5746496
77	0xbf28d27b	-0.6594617
78	0xbf7c5afd	-0.9857634
79	0xbd093cff	-0.033505436
80	0x3e4fd6d4	0.20296794
81	0x3e2c160d	0.16805287
82	0x403d6bc6	2.959703
83	0x3f0f3a63	0.55948466
84	0xbf17d4f8	-0.5930934
85	0x3ed560ee	0.41675514
86	0x3e3ac70e	0.18239996
87	0xbe913523	-0.28360853
88	0xbf14125a	-0.578405
89	0x3e8a06a5	0.26958194
90	0x3f66bd12	0.9013225
91	0xbf532db8	-0.82491636
92	0xbe66900c	-0.22515887
93	0xbf9c5215	-1.221255
94	0xbe683084	-0.22674757
95	0xbeddce01	-0.4332123
96	0xbf231abb	-0.6371266
97	0x3fd5d7aa	1.670644
98	0x3ebf60e0	0.37378597
99	0x3d3439a4	0.044000283
100	0x3e2228f2	0.15835932
101	0x3ec2a8f8	0.38019538
102	0xbf1f0307	-0.62113994
103	0xc016a643	-2.3538978
104	0xbed55a77	-0.41670582
105	0x3ee782fa	0.45217115
106	0xbe5c1ceb	-0.21495406
107	0x3f0f8792	0.5606624
108	0x3f1a0422	0.60162556
109	0xbf3bde11	-0.7338572
110	0xbf55983a	-0.83435404
111	0xbfcbd2ff	-1.5923766
112	0x3f0644ae	0.52448547
113	0x3ecbbcb8	0.39792418
114	0x3f55b07b	0.8347241
115	0xbfba4461	-1.4552118
116	0xbf40ac88	-0.7526326
117	0x3f873454	1.0562844
118	0x3f83ae75	1.0287615
119	0xbe5cf385	-0.2157727
120	0xbec3a94c	-0.382151
121	0xbf14289e	-0.57874477
122	0xbe6951f9	-0.22785176
123	0xbf077d28	-0.5292535
124	0xbf7b28fb	-0.98109406
125	0xbeb53728	-0.35393643
126	0x3ec1d986	0.3786127
127	0xc00c9cd3	-2.1970718
128	0xbe9e3388	-0.3089869
129	0xbf151347	-0.5823254
130	0x3e437ae3	0.19089846
131	0x3ec1aa05	0.37825027
132	0xbfb95551	-1.4479162
133	0xbe8003ed	-0.25002995
134	0x3eeba03a	0.4602068
135	0xbfab2e4c	-1.3373504
136	0xc013bc18	-2.3083553
137	0xbadee556	-0.0017005603
138	0xbf547718	-0.8299422
139	0x3fff59bd	1.9949261
140	0x3eb98b1f	0.36238953
141	0xbff2baa4	-1.8963208
142	0x3e88808f	0.26660582
143	0x3e8d334a	0.27578193
144	0x3cf7b979	0.030239807
145	0xbfe74a77	-1.80696
146	0xbd9565ff	-0.07294845
147	0x3fa39ee4	1.2782865
148	0xbf9495ef	-1.1608256
149	0xbec141c8	-0.377455
150	0xbf1d781d	-0.61511403
151	0xbeca2fa3	-0.3948947
152	0x3eb5dd06	0.3552019
153	0xbdaaeba7	-0.08345728
154	0x3f6ca940	0.92445755
155	0x3eb91695	0.3615004
156	0x3efc6e2a	0.49302799
157	0xbf4e3d4b	-0.80562276
158	0xbeefe658	-0.46855426
159	0xbf9fb077	-1.2475728
160	0xbf6b41b0	-0.91897106
161	0xbec9c665	-0.39409176
162	0x3fbaa180	1.4580536
163	0xbfbcc127	-1.4746445
164	0x3f2f42d7	0.68461365
165	0x3fb8de87	1.444291
166	0x3f57937d	0.84209424
167	0x3eca514f	0.3951516
168	0xbf0d4a2e	-0.55191314
169	0xbf8e4394	-1.1114373
170	0xbd723528	-0.059132725
171	0xbf6a8259	-0.91605145
172	0xbf4c597c	-0.7982404
173	0xbe6de9f4	-0.23233777
174	0xc00cf7f4	-2.2026339
175	0xbe28fead	-0.16503401
176	0xbf4177b6	-0.7557329
177	0x3f8cd708	1.1003122
178	0xbe52f87e	-0.20602605
179	0xbec71b59	-0.38888052
180	0xbfd29798	-1.6452513
181	0xbfd68562	-1.6759455
182	0xbf084890	-0.5323572
183	0xbf007260	-0.5017452
184	0x401997d3	2.3998916
185	0x3efc10dd	0.49231616
186	0x3fb4f8e2	1.4138453
187	0x3fd0ac66	1.6302612
188	0x3f1246a4	0.5713904
189	0xbb3e126d	-0.0029002682
190	0xbf8ab6bc	-1.0837016
191	0xbe621b38	-0.22080696

fc_1.bias f4 [64]
0	0xbe15fe4e	-0.14647791
1	0x3f590d13	0.84785575
2	0x3f455ad4	0.7709172
3	0x3e074c97	0.1321281
4	0x3fe92272	1.8213637
5	0x3f4d3823	0.8016378
6	0x3f62adb4	0.885463
7	0x3e8ab7bc	0.27093303
8	0x3e22a4fd	0.1588325
9	0x3f80f934	1.0076051
10	0x3ecbc16e	0.39796013
11	0x3f629020	0.8850117
12	0x3f90dd5c	1.1317554
13	0xbef5657d	-0.47928992
14	0x3f072e68	0.52805185
15	0x3f4a8de3	0.7912275
16	0x3f58a892	0.8463222
17	0x3bb310d1	0.005464651
18	0xbf8546b8	-1.0412207
19	0xbbf75191	-0.0075475653
20	0xbf1a9bcd	-0.60393983
21	0xbd9805e1	-0.07422996
22	0x3e5b7bbf	0.21433924
23	0xbf92da65	-1.1472899
24	0x3f711315	0.9416974
25	0x3f4ef7ec	0.8084705
26	0x3f9e243d	1.2354809
27	0xbf0bb08d	-0.5456627
28	0x3f344993	0.70424765
29	0x3f615eaa	0.8803507
30	0xbf2b5a74	-0.66934896
31	0x3f249cee	0.64301956
32	0xbd7c0127	-0.061524536
33	0x3f5072f9	0.81425434
34	0x3e3a1208	0.18170941
35	0x3f90ebc0	1.1321945
36	0xbf96e2d6	-1.1787975
37	0x3eb0dfb3	0.3454567
38	0x3f14bb7a	0.58098567
39	0x3c1ac531	0.009446428
40	0x3f59f24f	0.8513536
41	0x3d819d22	0.06328799
42	0x3cbb18f7	0.022839053
43	0xbeaee8a7	-0.34161875
44	0x3e9c699b	0.3054932
45	0xbfa1c070	-1.2636852
46	0x3f0c1b73	0.54729384
47	0x3f3a3e64	0.7275145
48	0xbee412cd	-0.44545594
49	0xbf632a36	-0.88736284
50	0xbf001206	-0.500275
51	0x3f2f0b00	0.6837616
52	0x3f9196bd	1.1374127
53	0x3f59ab40	0.8502693
54	0xbd448895	-0.047981817
55	0xbecfcd7e	-0.40586466
56	0x3f38ef37	0.7224001
57	0x3f7965ed	0.9742115
58	0x3ec23cf4	0.3793713
59	0xbdd562f7	-0.10419267
60	0x3e45b31a	0.19306603
61	0x3e0fb672	0.14034441
62	0xbf1195c1	-0.5686913
63	0xbe47c18c	-0.19507426

fc_2.weight f4 [32, 64]
0	0xbe450615	-0.19240601
1	0x3e45319b	0.19257204
2	0x3e14c5f4	0.14528638
3	0xbe2a201e	-0.16613814
4	0x3e0b6312	0.13612011
5	0x3e4854c3	0.19563584
6	0x3e76a8ad	0.24087782
7	0xbdc78681	-0.097424515
8	0x3e3fd857	0.18734871
9	0x3d0f4c9f	0.03498518
10	0x3e261d28	0.1622206
11	0x3ec399df	0.38203332
12	0x3e5c5d8f	0.21520065
13	0xbe6c5d9c	-0.23082584
14	0x3eb4e4b5	0.3533074
15	0x3eb1ccd3	0.3472658
16	0x3d751760	0.059836745
17	0x3e269a4f	0.16269802
18	0x3f0aac5d	0.54169255
19	0xbecfb8b1	-0.40570596
20	0x3e897526	0.2684719
21	0xbe88a8df	-0.26691338
22	0xbe2fca76	-0.17167076
23	0x3f2bdcfc	0.6713407
24	0x3cb775eb	0.022395095
25	0xbe23d237	-0.1599816
26	0x3e839a0e	0.25703472
27	0xbd8d3bc7	-0.06896167
28	0x3ebc8faa	0.36828357
29	0x3f162cd9	0.5866218
30	0x3ef47316	0.47744054
31	0xbeae392c	-0.34027994
32	0xbe7dd72a	-0.2478911
33	0x3b0fe0c5	0.0021954041
34	0x3da52ea0	0.08065534
35	0x3d06782f	0.03282946
36	0x3e0fafe7	0.14031945
37	0xbe7f5acf	-0.24936984
38	0x3d3af83a	0.045646884
39	0xbd368194	-0.04455717
40	0x3e90e968	0.28303075
41	0xbe85cba6	-0.26131934
42	0x3da32532	0.07966079
43	0xbf368008	-0.7128911
44	0x3e4eb703	0.20187001
45	0x3cdc3792	0.026881967
46	0xbd81409e	-0.06311153
47	0x3e122d6f	0.14275144
48	0xbe039d4c	-0.12852973
49	0xbda004dd	-0.078134276
50	0xbe7c75a1	-0.24654247
51	0x3e18cb45	0.14921291
52	0x3e2fff5a	0.17187253
53	0xbdf4e3ce	-0.11957513
54	0xbc71ae69	-0.014751055
55	0xbe0e8e7b	-0.1392154
56	0x3e8d1ff9	0.27563456
57	0x3e33dfd6	0.17565855
58	0xbeb95edf	-0.36205193
59	0x3ebf167d	0.37321845
60	0xbe7565f0	-0.23964667
61	0x3c99c7f3	0.018772101
62	0xbdb4d2f9	-0.08829302
63	0xbe7b9b1a	-0.24570885
64	0xbf490a92	-0.78531754
65	0x3e0931a2	0.1339784
66	0xbee3fa1c	-0.44526756
67	0x3d696be1	0.056987647
68	0x3bc3bbb3	0.005973303
69	0xbfa20b9c	-1.2659793
70	0xbe0ae26d	-0.13562937
71	0xbdc1445f	-0.09436869
72	0xbf82e844	-1.0227132
73	0x3d931f7c	0.071837395
74	0xbd025324	-0.03181757
75	0xbec35363	-0.38149557
76	0xbd888926	-0.06666784
77	0x3d86ec33	0.0658802
78	0xbf882c26	-1.0638473
79	0xbf33b921	-0.7020436
80	0x3e1f4ff9	0.15557851
81	0xbdb6f565	-0.08933524
82	0x3df6a555	0.12043253
83	0x3ecb1169	0.3966172
84	0xbf334e5e	-0.70041454
85	0xbf842d08	-1.0326242
86	0xbf1953e4	-0.5989363
87	0x3f1ecf09	0.6203466
88	0xbe95dea7	-0.29271433
89	0x3e78b2c0	0.24286938
90	0xbf663866	-0.8992981
91	0xbf7f7b98	-0.99797964
92	0xbfe999fc	-1.8250117
93	0xbef232b6	-0.47304314
94	0xbe807027	-0.25085565
95	0xbecc833b	-0.3994387
96	0xbde989f8	-0.114032686
97	0x3b393379	0.002825944
98	0xbf90d87f	-1.1316069
99	0x3f167439	0.5877109
100	0x3f30645c	0.68903136
101	0xbe515866	-0.20443878
102	0x3ea3c131	0.3198333
103	0x3f8577fe	1.0427244
104	0x3d9b71b5	0.07590047
105	0xbe83548b	-0.2565044
106	0x3ea13b39	0.31490496
107	0x3e8e47ba	0.27789098
108	0xbf124a94	-0.5714505
109	0xbd323c29	-0.043514404
110	0x3d828ade	0.06374143
111	0xbf1ef61e	-0.62094295
112	0xbee21970	-0.44160032
113	0xbeb76535	-0.35819402
114	0x3ef25522	0.47330576
115	0xc00cc649	-2.1996024
116	0x3e7426ff	0.23843001
117	0x3e65275b	0.22378294
118	0xbeaaa048	-0.3332541
119	0xbf228f35	-0.63499767
120	0xbe13346b	-0.14375465
121	0x3d93786a	0.072007015
122	0x3e2ca711	0.16860606
123	0xbcf5c48f	-0.030000953
124	0xbeef6cb8	-0.46762633
125	0xbf200eae	-0.625224
126	0xbef87bba	-0.48531896
127	0xbfa54007	-1.2910165
128	0xbec72bfd	-0.38900748
129	0x3d39bf87	0.04534867
130	0xbd5eda8d	-0.054407645
131	0xbec48676	-0.38383836
132	0xbd8f748a	-0.0700465
133	0xbe219658	-0.15780008
134	0xbe92d0de	-0.28674978
135	0x3e0139a9	0.12619652
136	0xbe8cb195	-0.27479234
137	0xbe1108b8	-0.14163482
138	0xbec853ab	-0.39126334
139	0xbf056585	-0.5210803
140	0xbe8f3dc9	-0.27976826
141	0xbea54272	-0.32277256
142	0xbdbeb2c6	-0.09311442
143	0x3e0deae0	0.13859129
144	0x3ce484eb	0.027895411
145	0xbd8f95e6	-0.07011013
146	0xbe1dd8f7	-0.15414797
147	0xbc836011	-0.016037019
148	0x3e969ed6	0.29418057
149	0xbebe0864	-0.37115777
150	0xbe00f4a8	-0.12593329
151	0x3fed16a0	1.852253
152	0xbe012e1a	-0.12615243
153	0xbe9752ac	-0.2955526
154	0x3df5fca3	0.12011077
155	0xbf7e1ddf	-0.9926433
156	0x3e288000	0.16455078
157	0x3f3ede3c	0.7455785
158	0x3f4dc503	0.8037874
159	0xbfa5fbf2	-1.2967513
160	0xbf1bde13	-0.60885733
161	0xbd492472	-0.049107023
162	0xbeecb0b9	-0.4622858
163	0xbcdc35e2	-0.026881162
164	0x3c57041d	0.013123539
165	0x3d0172a5	0.031603474
166	0x3e0697cb	0.13143842
167	0x3e7898a5	0.2427698
168	0x3d24b4eb	0.0402116
169	0xbea9d140	-0.33167458
170	0xbf0c05c3	-0.5469629
171	0xbe8fabb9	-0.280607
172	0x3ea637a0	0.32464314
173	0xbeb46c01	-0.3523865
174	0xbec6d4cc	-0.38834226
175	0xbec98bb9	-0.39364412
176	0xbf252b80	-0.645195
177	0xbdbcff8f	-0.092284314
178	0x3f199e0a	0.60006773
179	0xbe7db100	-0.24774551
180	0xbdf9fc93	-0.12206378
181	0xbec64562	-0.3872481
182	0x3e3265b1	0.17421605
183	0xbd056272	-0.032564588
184	0x3d657280	0.0560174
185	0xbe2cc504	-0.1687203
186	0xbf680794	-0.90636563
187	0xbe57c4dc	-0.2107119
188	0xbebb9cf3	-0.3664318
189	0xbeba3e8b	-0.36375841
190	0x3dc1d694	0.09464756
191	0xbf6a87f7	-0.91613716
192	0xbe81a731	-0.2532287
193	0x3d89bc1b	0.067253314
194	0xbe74ec04	-0.23918158
195	0x3f048c5a	0.5177666
196	0x3efa9fcc	0.4895004
197	0x3b8d98a3	0.004321174
198	0xbcb46cdd	-0.022024566
199	0xbd57d590	-0.052693903
200	0x3ec8ce1e	0.39219755
201	0x3e4d5676	0.20052513
202	0x3edb9504	0.42887127
203	0xbd9b923d	-0.07596252
204	0x3d852037	0.06500285
205	0xbf77b641	-0.9676247
206	0xbe57c8c2	-0.21072677
207	0x3e8616e2	0.26189333
208	0x3e22988b	0.15878503
209	0xbebcb82e	-0.36859268
210	0x3d5194f8	0.05116746
211	0x3e863e13	0.26219234
212	0xc0974be4	-4.728014
213	0x3e86849b	0.26273045
214	0x3e5fe8ef	0.21866201
215	0xbec8dda3	-0.39231595
216	0x3df413c5	0.11917833
217	0x3e726928	0.23672926
218	0x3cc99712	0.024608169
219	0xc00a68c2	-2.162644
220	0x3ea6f478	0.3260839
221	0x3ea91a71	0.33027986
222	0xbed10549	-0.40824345
223	0xbe63c589	-0.22243322
224	0x3fa2ab18	1.2708464
225	0x3ec19ef4	0.37816584
226	0xbe5b91cb	-0.21442334
227	0x3f035466	0.51300657
228	0xbe1cb0a8	-0.15301764
229	0x3f3b4d45	0.7316478
230	0x3ee8c86b	0.45465407
231	0xbe0da41f	-0.13832138
232	0xbd55c8c2	-0.05219341
233	0x3e85f830	0.26165915
234	0xbe7a4c5e	-0.24443194
235	0x3f26a046	0.6508831
236	0x3e6e9c34	0.23301774
237	0x3ea52da0	0.32261372
238	0xbf4dbd1e	-0.80366695
239	0xbed45e2c	-0.41478097
240	0x3dcb1b00	0.09917259
241	0xbda35594	-0.07975307
242	0xbe2f22e0	-0.17103148
243	0x3e1094ae	0.14119217
244	0x3e80b1ec	0.25135744
245	0x3dec2282	0.11530019
246	0xbf1596a2	-0.5843297
247	0x3e5831e3	0.2111278
248	0x3f06c835	0.5264924
249	0xbcafc24e	-0.021454956
250	0xbe3d03e6	-0.18458518
251	0x3e98ad52	0.29819733
252	0x3edcd916	0.43134373
253	0xbf41f854	-0.75769544
254	0x3f60794b	0.8768508
255	0x3f12adf3	0.57296675

fc_2.bias f4 [32]
0	0x3eeffbb3	0.4687172
1	0xbe93ca0c	-0.28865087
2	0xbe106f86	-0.14105043
3	0x3ed6eeff	0.41979215
4	0x3ebc6f77	0.3680379
5	0x3d7a62f7	0.061129536
6	0x3f0a9453	0.54132575
7	0x3ebd4650	0.36967707
8	0x3d1c7185	0.0381942
9	0x3efeb614	0.4974829
10	0x3d39b358	0.04533705
11	0x3ef071c2	0.4696179
12	0x3f4cad17	0.79951614
13	0xbf61de24	-0.88229585
14	0x3ed73f67	0.4204056
15	0x3f292045	0.66064864
16	0x3edcfaa0	0.43159962
17	0x3e69d3e3	0.22834735
18	0x3d94a84c	0.072586626
19	0x3ec9b039	0.3939226
20	0xbe1ecdc2	-0.15508178
21	0x3ea8df53	0.32982883
22	0x3e302a44	0.17203623
23	0xbf70245d	-0.93805486
24	0x3eee5eeb	0.46556792
25	0x3f0df162	0.55446446
26	0x3abd6467	0.0014449478
27	0x3ecc4e94	0.399037
28	0x3f1292bc	0.5725515
29	0x3f1578eb	0.5838763
30	0x3ebe9ee2	0.37230593
31	0x3e1d5fa1	0.15368511

fc_3.weight f4 [16, 32]
0	0x3e1f4d7f	0.15556906
1	0x3f078620	0.52939034
2	0x3f4db3fc	0.8035276
3	0x3e04d076	0.12970147
4	0x3d8e90db	0.06961223
5	0xbf5ef827	-0.870974
6	0xbea16850	-0.31524897
7	0x3f05bb43	0.52238864
8	0xc04023c5	-3.0021832
9	0xbeb5240b	-0.3537906
10	0x3f4869bd	0.78286344
11	0xbef4dde5	-0.47825542
12	0xbebd7dee	-0.3701014
13	0xbd97ef64	-0.07418707
14	0xbf112dab	-0.5671031
15	0xbe9b9d00	-0.3039322
16	0xbe33f6c8	-0.17574608
17	0x3d0e3059	0.034714077
18	0x3fa2f4a9	1.2730914
19	0xbee453a2	-0.44595057
20	0x3c567862	0.013090225
21	0x3e1ab972	0.15109804
22	0x3fc49ba3	1.5359997
23	0xbf0f9c29	-0.56097656
24	0xbe3bf2ae	-0.18354294
25	0xbda20872	-0.07911767
26	0x3e906ffe	0.28210443
27	0xbe6996fd	-0.22811504
28	0xbf60dbd4	-0.8783543
29	0xbe940378	-0.28908896
30	0x3d5b989b	0.053612333
31	0xbf2cbfdf	-0.6748027
32	0x3d2bb945	0.041924734
33	0xbf213431	-0.6297026
34	0xbf15d56f	-0.585288
35	0xbe99d703	-0.30046853
36	0x3f796ef6	0.9743494
37	0xbe8c136e	-0.27358574
38	0x3f083eb7	0.53220695
39	0x3f9fc71d	1.248264
40	0x401ce813	2.4516647
41	0x3e422564	0.18959576
42	0xbf706eec	-0.93919253
43	0x3ee6a46c	0.4504732
44	0x3e8d4076	0.27588242
45	0xbd905e4e	-0.07049237
46	0x3ed206a9	0.41020706
47	0x3e2e2a96	0.17008433
48	0x3e81c20f	0.25343367
49	0xbf1672d1	-0.58768946
50	0xbf9d013d	-1.2266003
51	0x3f090614	0.535249
52	0xbdc8663c	-0.09785125
53	0xbdfd2d0a	-0.12362106
54	0xbf8b6aae	-1.0891931
55	0x3f10d9c5	0.5658229
56	0x3ec62fe8	0.38708425
57	0x3e964d45	0.29355827
58	0xbedf3d14	-0.43601286
59	0x3edf98e7	0.43671343
60	0x3f38316c	0.7195041
61	0x3ef07872	0.46966892
62	0x3e1878cf	0.14889835
63	0x3ed2c3d5	0.41165033
64	0xbe4b2d63	-0.19841532
65	0xbe13ebed	-0.14445467
66	0xbee241a0	-0.44190693
67	0xbf2e0e68	-0.6799073
68	0x3f6a1514	0.9143841
69	0xbe4c290c	-0.19937533
70	0x3d9f99ab	0.07792982
71	0x40662643	3.5960853
72	0xbfc84940	-1.5647354
73	0xbd949466	-0.07254867
74	0x3fcbdd8e	1.5926988
75	0xbd3b41d8	-0.04571709
76	0xbe6ea62b	-0.23305576
77	0x3f286af8	0.6578822
78	0x3e06b79a	0.13155976
79	0xbe1dce5e	-0.15410754
80	0x3d3c04b6	0.04590293
81	0xbf331f7f	-0.69969934
82	0xbf4ef381	-0.8084031
83	0xbd472e7f	-0.048628327
84	0x3f6a86b1	0.9161177
85	0x3f211ad5	0.6293157
86	0x3f75b190	0.95974064
87	0x3ef4215d	0.47681704
88	0x3da11934	0.07866135
89	0x3c5621de	0.013069598
90	0xbe920ad1	-0.28523877
91	0xbdd84f76	-0.10562031
92	0x3f049034	0.51782537
93	0x3e622f0f	0.22088264
94	0x3dbac1c4	0.09118989
95	0xbecb1c5d	-0.39670077
96	0xbd5f653c	-0.054539904
97	0x3f8ffbf0	1.124876
98	0x3e837d77	0.2568166
99	0x3f55d3bb	0.835262
100	0xbfdc1fdf	-1.7197226
101	0x3f9a17bc	1.2038493
102	0xbeee160c	-0.46501195
103	0x3e8f1518	0.2794578
104	0x3d8bab04	0.06819728
105	0xbe841606	-0.25798053
106	0xbeb53095	-0.35388628
107	0x3fc2dd8c	1.5223861
108	0xbeb4c0b3	-0.35303268
109	0x3e4adbf2	0.19810465
110	0xbf0df66a	-0.55454123
111	0xbea71a87	-0.32637426
112	0xbf259a90	-0.6468897
113	0x3f55f567	0.8357758
114	0x3f621841	0.8831826
115	0xbe267474	-0.16255361
116	0xbeef97bf	-0.4679546
117	0x3e3f341a	0.18672219
118	0x3f9c95e1	1.223324
119	0x3f9edc7e	1.2411039
120	0xbe88c73f	-0.26714513
121	0xbd99f7b5	-0.075179495
122	0xbfb0d304	-1.3814397
123	0xbffc9f7d	-1.9736172
124	0xbed488ad	-0.41510525
125	0xbe5ed772	-0.21761873
126	0xbe8637ac	-0.2621435
127	0xbe697b63	-0.22800975
128	0xbe60b1c3	-0.2194281
129	0xbe4c2975	-0.1993769
130	0xbf205dc0	-0.6264305
131	0x3f2f7e94	0.6855252
132	0xbf20b32e	-0.62773407
133	0x3f5608d4	0.8360722
134	0x3dcf4ac7	0.101216845
135	0x3ed07b5c	0.40719116
136	0xbfc303bf	-1.5235518
137	0x3eec933f	0.4620609
138	0x3f84ad26	1.0365341
139	0xbf9aaa1e	-1.2083166
140	0x3d0d315b	0.034470897
141	0xbdc06ef1	-0.093961604
142	0xbe592f86	-0.21209535
143	0xbc6359f0	-0.013876423
144	0x3e719d23	0.23595099
145	0x3fa03090	1.251482
146	0x3fe1ac1c	1.7630649
147	0x3e7a2d04	0.24431235
148	0x3f54994e	0.83046424
149	0xbccf00b0	-0.025268883
150	0x3dd96bf1	0.10616291
151	0xbf0188a4	-0.5059912
152	0xbd3555df	-0.044271346
153	0xbdd224ed	-0.10260949
154	0x3f0228be	0.5084342
155	0xbf31e0ce	-0.6948365
156	0xbf3d1091	-0.73853403
157	0x3ec322d2	0.38112503
158	0x3d0da983	0.034585487
159	0xbed195a7	-0.40934488
160	0x3e89dee6	0.2692787
161	0xbec9564c	-0.39323652
162	0xbf0e6ff3	-0.5563957
163	0xbd9d8ad7	-0.07692497
164	0x3ee8fa57	0.45503494
165	0xbdff279f	-0.12458729
166	0x3ede718d	0.43446007
167	0xbef567b1	-0.47930673
168	0x4020ff19	2.51557
169	0x3f095981	0.536522
170	0xbf4ed19c	-0.8078859
171	0x3eda23c2	0.42605406
172	0x3f0897f8	0.53356886
173	0xbd4b79ac	-0.049676582
174	0x3f14a744	0.5806773
175	0x3ec4f4ac	0.3846792
176	0x3eaab583	0.33341607
177	0xbf176ad8	-0.59147406
178	0xbf516369	-0.8179231
179	0x3f2d2ee6	0.67649686
180	0x3e6495cc	0.22322768
181	0xbe73e4b0	-0.23817706
182	0xbfb8a4c1	-1.4425279
183	0x3e2e0f08	0.16997921
184	0x3e838bac	0.256925
185	0x3db0663d	0.086132504
186	0xbe678f61	-0.22613288
187	0x3ef8514d	0.48499528
188	0x3f1509eb	0.5821826
189	0x3ee0be32	0.43895108
190	0x3e9ab116	0.3021323
191	0x3f422a56	0.7584585
192	0x3e86edd8	0.26353335
193	0xbf1c38db	-0.61024255
194	0x3d64f84b	0.055900853
195	0xbf9eb761	-1.2399713
196	0x3faff32f	1.3746089
197	0xbf2bd595	-0.67122775
198	0x3dcad14b	0.09903201
199	0xbfe65648	-1.7995081
200	0x4012a3cd	2.2912476
201	0x3e70af8c	0.23504466
202	0xbf3cafd1	-0.73705775
203	0x3f0a313b	0.5398137
204	0x3e703099	0.23456039
205	0xbf1e76a6	-0.61899793
206	0xbcb5e1c9	-0.02220239
207	0x3df5071c	0.11964247
208	0x3e85554c	0.2604164
209	0xbfc0b6e1	-1.505581
210	0xc0348680	-2.8207092
211	0x3e838776	0.25689286
212	0xbf62e53d	-0.8863104
213	0xbf0fa908	-0.56117296
214	0xc08a21a4	-4.3166065
215	0xbedd43a6	-0.43215674
216	0x3e54bc6a	0.20775
217	0x3eaa88f8	0.33307624
218	0xbf7268f3	-0.9469139
219	0x3fc476b1	1.5348722
220	0x3d3f3ef3	0.046690892
221	0x3cd4d946	0.02598251
222	0x3e31f980	0.17380333
223	0xbf0e4cf2	-0.5558616
224	0x3ea36fb2	0.31921154
225	0xbeeadd42	-0.4587193
226	0xbe016bb9	-0.12638749
227	0xbeb12276	-0.34596604
228	0x3f20db23	0.62834376
229	0xbcd1fcde	-0.025633272
230	0x3e89906b	0.26867995
231	0x3e18e5ab	0.14931361
232	0x4001025e	2.0157695
233	0x3e5c68c5	0.21524341
234	0xbee103c8	-0.43948197
235	0x3ee3a37d	0.4446067
236	0x3eb71f51	0.3576608
237	0xbf016e84	-0.5055926
238	0xbdfbbf21	-0.12292314
239	0x3eaa4e44	0.33262837
240	0x3e8aef32	0.27135617
241	0xbf496a2a	-0.7867762
242	0xbf91cd4c	-1.1390777
243	0x3ede240b	0.43386874
244	0xbf266f28	-0.6501336
245	0xbee88afe	-0.45418543
246	0xbfa38a39	-1.2776557
247	0xbf16124e	-0.5862168
248	0x3ea580db	0.3232487
249	0x3e808014	0.25097716
250	0xbf2a2042	-0.6645547
251	0x3f4492a9	0.76786286
252	0x3ee8520e	0.45375103
253	0x3e6d5a5e	0.23179004
254	0x3ddaae65	0.10677794
255	0xbdc982cd	-0.098394014

fc_3.bias f4 [16]
0	0xbf290855	-0.6602834
1	0x3f1b8312	0.6074687
2	0xbf263191	-0.6491938
3	0x3e8b72e2	0.27236086
4	0x3e935c5a	0.28781396
5	0x3f0096ac	0.5022991
6	0x3f000229	0.50003296
7	0x3efb8e06	0.49131793
8	0xbe3c282d	-0.18374701
9	0x3f1cbd6a	0.6122652
10	0x3f86228f	1.0479296
11	0x3f6d10e8	0.9260392
12	0x3eccc82e	0.39996475
13	0xbf06e0da	-0.52686846
14	0xbd30ba04	-0.04314615
15	0x3e0c743d	0.13716216

fc_out.weight f4 [15, 16]
0	0x3f062c3a	0.52411234
1	0xbec9a24b	-0.39381632
2	0x3f83ab9e	1.0286748
3	0xbf4d13e4	-0.80108476
4	0x3f1d7d9e	0.615198
5	0xbefed100	-0.4976883
6	0xbf710939	-0.941547
7	0xbe34609c	-0.17614979
8	0xbed34209	-0.41261318
9	0xbf358e8f	-0.7092065
10	0xbf2cbe5f	-0.67477983
11	0xc00943c9	-2.1447623
12	0xbd5598a9	-0.05214754
13	0x3e94b88b	0.29047045
14	0xbeca838d	-0.3955349
15	0xbdded596	-0.10880582
16	0x3f229046	0.63501394
17	0xbe9a7b04	-0.30171978
18	0x3f500b0e	0.8126687
19	0x3f139d5f	0.57662004
20	0x3f3c5040	0.7355995
21	0xbeeade4f	-0.45872733
22	0xbf5abf26	-0.8544792
23	0xbe8a1116	-0.2696616
24	0x3ea18f33	0.31554565
25	0xbf53682c	-0.8258083
26	0xbf21e64e	-0.6324204
27	0xbffd9086	-1.980973
28	0xbe4207b6	-0.18948254
29	0x3f101f17	0.5629744
30	0xbe269380	-0.16267204
31	0x3bde68c1	0.00678739
32	0x3ec3aaf8	0.38216376
33	0xbe07fcbc	-0.13280004
34	0x3f4001ab	0.75002545
35	0xbdc49281	-0.09598256
36	0x3f3f8f38	0.7482791
37	0xbef6be83	-0.48192224
38	0xbf6ac880	-0.9171219
39	0xbe89cbee	-0.26913399
40	0x3e9a2504	0.30106366
41	0xbf5ca4b7	-0.86188835
42	0xbf1115e3	-0.5667402
43	0xbff006f3	-1.8752121
44	0xbedb146b	-0.42789015
45	0x3f2d08f9	0.67591816
46	0xbdb1793e	-0.08665703
47	0x3e927db5	0.28611532
48	0x3e34272a	0.17593065
49	0xbe1b97cd	-0.15194626
50	0x3edf4164	0.43604577
51	0x3f04c5d0	0.5186434
52	0x3f68b5f9	0.9090267
53	0xbefed615	-0.49772707
54	0xbf82994f	-1.0203036
55	0xbe9a0f1d	-0.30089656
56	0xbdff5503	-0.124673866
57	0xbf8645c8	-1.0490046
58	0xbeb817d9	-0.35955694
59	0xbfce4da1	-1.611744
60	0xbee327af	-0.44366214
61	0x3f0cb891	0.54969126
62	0x3df7a2fd	0.120916344
63	0xbf04f36c	-0.5193393
64	0x3cc63de6	0.024199437
65	0xbe96c21f	-0.29444978
66	0x3e0dc27e	0.13843724
67	0x3f71df90	0.94481754
68	0x3f80d0ff	1.006378
69	0xbf19822a	-0.5996424
70	0xbf94aae3	-1.161465
71	0xbe819b94	-0.2531401
72	0x3e2fd35a	0.17170468
73	0xbf9cad57	-1.2240399
74	0xbe763257	-0.2404264
75	0xbfb3e4bc	-1.4054179
76	0xbe15126a	-0.14557806
77	0x3f0f338b	0.55938023
78	0x3e957f81	0.2919884
79	0xbef36a56	-0.47542065
80	0x3f4c595a	0.7982384
81	0xbed9d8c4	-0.42548192
82	0xbdb10a8c	-0.0864459
83	0x3ef50695	0.47856584
84	0x3f94da57	1.1629132
85	0xbe9f76c1	-0.3114529
86	0xbfa03b3b	-1.2518076
87	0xbea9aed5	-0.331412
88	0x3e94a1d1	0.29029706
89	0xbf9c4481	-1.2208406
90	0xbdf8af92	-0.121428624
91	0xbf99ce1d	-1.2016026
92	0xbed4c484	-0.4155618
93	0x3f16728b	0.5876853
94	0x3ebaf00d	0.3651127
95	0xbda6e27e	-0.08148669
96	0x3e3cca62	0.18436578
97	0xbef289fd	-0.47370902
98	0xbe547df6	-0.20751175
99	0x3f441526	0.7659477
100	0x3f9b0fe7	1.2114228
101	0xbeb45938	-0.35224319
102	0xbfa5923e	-1.2935255
103	0xbe9d40fc	-0.30713642
104	0xbdc76935	-0.097368635
105	0xbfaf01e4	-1.3672452
106	0xbd54a98d	-0.05191951
107	0xbf8bfe81	-1.0937043
108	0xbe9dd315	-0.30825105
109	0x3f115d7a	0.5678326
110	0x3ecc1795	0.39861742
111	0x3ef027f9	0.46905497
112	0x3eb2ed2d	0.34946576
113	0xbe95e80f	-0.2927861
114	0xbebf3933	-0.37348327
115	0xbf0bdfb4	-0.5463822
116	0x3f9e7ba2	1.238148
117	0xbf070995	-0.52748996
118	0xbfbcb7ce	-1.4743593
119	0xbe436a6b	-0.19083564
120	0xbe7f15c5	-0.24910648
121	0xbfd07620	-1.6286049
122	0x3e4a71ce	0.19769976
123	0xbf5591b6	-0.8342546
124	0xbee28de2	-0.44248873
125	0xbe5296b9	-0.20565309
126	0x3ed9832b	0.42482886
127	0x3f8a1191	1.0786611
128	0x3f3b8d3a	0.7326237
129	0xbf1eb08c	-0.6198814
130	0xbf27c970	-0.65541744
131	0xbfa9f417	-1.3277615
132	0x3fb962f0	1.4483318
133	0xbe6a169b	-0.22860186
134	0xbfb91c3a	-1.4461739
135	0xbe86817b	-0.2627066
136	0xbe620430	-0.2207191
137	0xbfd2a787	-1.6457375
138	0x3e5cb7d2	0.21554497
139	0xbf2dfbc6	-0.679623
140	0xbee8011f	-0.45313355
141	0xbeb5fec5	-0.35545936
142	0x3f01df8c	0.5073173
143	0x3f91b54d	1.1383454
144	0x3edd6466	0.4324066
145	0xbe8d9f8a	-0.2766078
146	0xbdd6ae3e	-0.10482453
147	0x3f129e9f	0.57273287
148	0x3f8d6166	1.1045349
149	0xbf0a0fc3	-0.539303
150	0xbf883b5b	-1.0643114
151	0xbdbb7fc8	-0.09155232
152	0xbeea2416	-0.45730656
153	0xbfb397d8	-1.4030714
154	0xbe575528	-0.21028578
155	0xbf9e08d8	-1.2346449
156	0xbedc95ea	-0.43083125
157	0x3e9b18ab	0.30292258
158	0x3ee0281b	0.43780598
159	0x3eb13826	0.3461315
160	0x3e3a6b7c	0.18205065
161	0xbef2a637	-0.47392437
162	0xbe8a5983	-0.27021417
163	0x3ea320dc	0.31861007
164	0x3f9fac29	1.2474414
165	0xbeb1b249	-0.34706333
166	0xbfb6211a	-1.4228852
167	0xbe9a5c0c	-0.3014835
168	0x3e28251b	0.16420405
169	0xbfae1f53	-1.3603309
170	0xbdd769a0	-0.10518193
171	0xbf73b649	-0.9520002
172	0xbeafb3c2	-0.34316832
173	0x3ee58da5	0.4483463
174	0x3f083ef7	0.53221077
175	0x3fd3e4fc	1.6554255
176	0x3e85af74	0.26110423
177	0xbf1ce9d3	-0.6129429
178	0xbf28928e	-0.65848625
179	0x3fa6e329	1.3038074
180	0x3feb9ce8	1.8407259
181	0xbd84bc5a	-0.06481238
182	0xbf4753f8	-0.778625
183	0xbf1ec929	-0.62025696
184	0xbd22f6ee	-0.03978627
185	0xbf8ad39f	-1.0845832
186	0xbdaef188	-0.08542162
187	0xbf6bb9c4	-0.9208033
188	0xbf327ad3	-0.69718665
189	0x3edd4677	0.43217823
190	0x3f6f0a15	0.9337476
191	0x3d92a5d0	0.071605325
192	0xbc1738b1	-0.009229825
193	0xbf1ca7bf	-0.6119346
194	0xbf3b860c	-0.73251414
195	0x3f3fe29a	0.7495514
196	0x3fd548cf	1.6662844
197	0xbd04d2a3	-0.03242744
198	0xbf670b43	-0.9025156
199	0xbf16b7b5	-0.58874065
200	0x3ec374b0	0.38174963
201	0xbfb8ef97	-1.4448117
202	0x3e5c5f35	0.21520694
203	0xbf308b96	-0.6896299
204	0xbf457a24	-0.77139497
205	0x3f00b087	0.5026936
206	0x3f654fd2	0.8957492
207	0x3f3a3607	0.7273869
208	0x3ed82f9f	0.42223832
209	0xbeecd8b9	-0.46259096
210	0xbf534a78	-0.82535505
211	0x3f98350f	1.1891192
212	0x3fbe79a1	1.4880868
213	0xbf227ed6	-0.63474786
214	0xbfe6399c	-1.7986331
215	0xbcaedc06	-0.02134515
216	0xbeaed4d0	-0.34146738
217	0xc0108401	-2.2580569
218	0x3f439e7d	0.7641371
219	0xbe8a3277	-0.26991627
220	0xbe8c9f18	-0.2746513
221	0x3f1c5e71	0.61081606
222	0x3e042e5b	0.12908308
223	0xbd9420ef	-0.07232844
224	0xbd99e567	-0.07514458
225	0xbf02cbc0	-0.5109215
226	0xbf4e501c	-0.8059099
227	0x3faff3c6	1.3746269
228	0x3fec8d35	1.8480593
229	0xbe6b6137	-0.22986303
230	0xbf33543a	-0.70050395
231	0xbeed5dde	-0.46360677
232	0x3f7559b9	0.9584003
233	0xbfa80c8c	-1.3128829
234	0xbd78fdb7	-0.060788836
235	0xbf53b12a	-0.82692206
236	0xbf2fd5ec	-0.68685794
237	0x3e8927bd	0.2678813
238	0x3f82380c	1.0173354
239	0x3e8f3ff3	0.27978477

fc_out.bias f4 [15]
0	0xbfa30345	-1.2735373
1	0xbf4265b1	-0.7593642
2	0xbecc02e3	-0.39845952
3	0xbef875fa	-0.4852751
4	0xbf4d40d7	-0.8017706
5	0xbe0dc30a	-0.13843933
6	0xbe48221e	-0.19544265
7	0xbde02638	-0.1094479
8	0x3e63b44c	0.22236747
9	0xbd17102d	-0.03688066
10	0xbeb0d47a	-0.34537107
11	0xbfc9385d	-1.5720326
12	0xbfbcb73c	-1.4743419
13	0x3f909857	1.129649
14	0xbfb01994	-1.3757806
