SAC/SAC42.pt (torch, 20904 bytes, 6 tensors)

fc_1.weight f4 [64, 3]
00000000: e578 283b b9a9 873f 911b 353f d12a aabe
00000010: 3bcb 23bf 9f9e 3abe 4590 c9be a915 1e3e
00000020: 1d6e f53c 6345 733d be0d a93f 21dc ba3e
00000030: e2ba d5be 5fa1 273f 2b71 3cbe e45a 2d3e
00000040: 35e0 923f be46 7ebe 660f 0abf 4550 55bf
00000050: bd65 803c fcb8 8ebe edc5 babe af55 103f
00000060: b66a 0ebf 069b 26bf 8bfb eebd 8ca9 08bf
00000070: 0988 323f d41c 0b3e 5609 ad3e e0ce 7c3f
00000080: ad87 163e d7ba 3cbe c34c 943e e61e 3d3f
00000090: 68ce 0bbf 475d c3be 20e7 29be 47d0 323e
000000a0: 5b9c 8e3f 5667 5cbd 220c 7a3e 4802 f2bd
000000b0: b5f4 9f3e 6b5c c5bd a812 cfbd a68c 073d
000000c0: 073f 603d 31e1 acbf fb73 f9be 2464 9cbc
000000d0: 8214 07bf b58f aa3e 4c07 a33e 2d9f 243f
000000e0: 176d 2dbe 2c40 51be 7d92 30bf 3f39 12be
000000f0: c813 23be cb9b 4abf 3f73 0cbf 4ae6 16bf
00000100: a378 293f 84b7 12be a13b 8dbd 0e59 583a
00000110: eb33 433d 0875 fa3e 0c41 973e 4c28 013f
00000120: 584a cb3e 62f7 e63e 6c87 d63e 7b09 263e
00000130: a67a aebf 2f0d 8dbe b5f5 a63e 00cc 343f
00000140: f70d 26bb 353a fdba 2379 413f 3480 023f
00000150: e7df 36bd feeb 043f 6c87 f9bd f1df 59bd
00000160: 7231 f3be 0eb4 ed3e 8726 f43e c05f f4bd
00000170: f10d e03e a296 28be 70b7 ffbe 7baa dabe
00000180: 456c 873e 0061 603f 9c27 a4bd bc59 d03d
00000190: cc1c ab3f 073b aebd 83ab 3cbe 59c1 213e
000001a0: 4e1d e53c 79b9 c23d e0e8 8ebe 5ced e0be
000001b0: 6439 22be 449a d7be 9f1d 7c3d 61a6 fa3e
000001c0: fac5 74bf d9d3 04bf 5b55 e13e dd89 f53e
000001d0: d1ba 0b3f d9b0 55bf d170 8d3f f8b5 683e
000001e0: 8e0d adbe 21a2 6abe 7944 14bf bb52 a23f
000001f0: 4bda 50bf d185 d2bd 2a70 da3e 5b73 9c3f
00000200: 00af c23e 2aac e63b 731f 863f b790 7fbe
00000210: 8fdf 7e3c 5742 b33f 496a bc3e 1b52 213f
00000220: 0ea9 033e 7c97 6c3c 69c1 b2be fdfc 713f
00000230: bdcc fabe 954d 5a3e b2cb 8bbf 860d 343e
00000240: daa2 18bf 0401 17bf f6db b1bd 67fc 2f3c
00000250: 7c3a 943f 47ef 9b3e 67a1 a73e 6113 ef3c
00000260: f453 c13e 5731 37be 1825 ddbf ef69 3dbe
00000270: 9b15 64be 3fb1 1ebf 0f2a 06bf be7a 6d3f
00000280: 8c7c 36bf 7bab d1be 7bac a0be 4070 3cbf
00000290: 1d1a 26be 0792 d1bd 981b ac3f 3ea1 963e
000002a0: d2c3 f7be f524 4cbb 99dc f6be 0358 f5bd
000002b0: a45f 153f e959 d53e 085f 113f e840 79bf
000002c0: 5d03 ebbd 1880 563e 924b ab3f 6db2 46be
000002d0: 61d2 17be 7b74 1b3f 2914 133f 1e4d 923e
000002e0: 32ac 24bf 60df 4d3e a958 e6bd 62a6 913d
000002f0: 3225 3e3f 578c 2ebf eb02 b6bb 9a62 20be
0.0025706824 1.059867 0.7074519 -0.3323579 -0.6398198 -0.18224572 -0.3936788 0.1543795
0.029959733 0.059392344 1.3207319 0.3649607 -0.41744143 0.6548061 -0.18402545 0.16929203
1.1474673 -0.24831674 -0.53929746 -0.83325607 0.015673513 -0.27875507 -0.3647913 0.5638074
-0.5563158 -0.65080297 -0.11669072 -0.5338371 0.69738823 0.13585216 0.33796185 0.98753166
0.14700194 -0.18430649 0.28964815 0.7387527 -0.54611826 -0.38157102 -0.16592073 0.17462264
1.1141466 -0.053809486 0.24418691 -0.11816841 0.31241384 -0.09636768 -0.1011098 0.033093117
0.054747608 -1.3506223 -0.487213 -0.01909072 -0.5276567 0.33312765 0.31841505 0.6430538
-0.16936146 -0.20434636 -0.68973523 -0.1427965 -0.15925515 -0.7914397 -0.5486335 -0.58945143
0.661997 -0.14327818 -0.06896139 0.0008253016 0.047656935 0.48917413 0.29541814 0.50452113
0.39705157 0.45110613 0.41900194 0.16214554 -1.3631179 -0.2754912 0.32609335 0.7062378
-0.0025337914 -0.0019319715 0.75575465 0.5097687 -0.044647124 0.51922596 -0.12184033 -0.053192083
-0.4749866 0.46426433 0.47685644 -0.11932325 0.43760636 -0.16463712 -0.4994464 -0.4270819
0.2644979 0.8764801 -0.080153674 0.101733655 1.3368163 -0.08507352 -0.18424802 0.15796413
0.027968075 0.09508032 -0.27912045 -0.4393109 -0.15842205 -0.42109883 0.061551686 0.48955062
-0.9561459 -0.51885754 0.44010434 0.47956744 0.54581934 -0.83472973 1.1050054 0.22725666
-0.33799404 -0.2291341 -0.5791698 1.2681497 -0.8158309 -0.1027943 0.426637 1.2222704
0.3802414 0.0070395665 1.0478348 -0.24957548 0.01555623 1.400462 0.3679984 0.6301591
0.12857458 0.014440414 -0.34913185 0.94526654 -0.48984328 0.21318658 -1.0921538 0.17583284
-0.5962349 -0.58985925 -0.08684532 0.01074133 1.1580348 0.30455992 0.32740328 0.029184045
0.37759364 -0.17889915 -1.7276945 -0.18497442 -0.22273867 -0.61989206 -0.52407926 0.92765415
-0.71283793 -0.40951142 -0.31381592 -0.7360878 -0.16220899 -0.10232931 1.3445921 0.29419893
-0.48391587 -0.0031149958 -0.48215178 -0.119796775 0.5834906 0.41670159 0.5678563 -0.97364664
-0.11475251 0.20947301 1.3382437 -0.19404002 -0.14826347 0.6072461 0.57452637 0.2857446
-0.6432525 0.20104742 -0.11247379 0.07111813 0.74275506 -0.6818289 -0.005554547 -0.15662614

fc_1.bias f4 [64]
00000000: 7217 5dbe aede 0e3f 18b7 eb3e 5cac 1cbe
00000010: 8ee1 2c3e 6106 233e b950 37be a103 013f
00000020: 0e2a 183f 0329 0c3f 6f97 d83d 3f3e fbbe
00000030: e6e0 993d e064 a03d 7882 0fbf a686 0d3f
00000040: f936 a73d a989 49be 1703 d63c efcb 103e
00000050: d7ad bcbd 23c7 25bf 72a6 ce3e 78dd 5c3e
00000060: a79f abbe 6030 473e ba36 433f 0082 25be
00000070: 3ace da3e f703 debe a5e8 e23e ee9c 943e
00000080: 2f48 9a3e cfea 053d 7e44 ea3e b0f7 c43e
00000090: 810a d03e 1325 e93e fa65 283e 3407 c53c
000000a0: 7b6d cebd 1162 39be 8cdb 833e 10ed 98bc
000000b0: 9c4f f9bd da84 d93e 10d5 b43c c5d8 02be
000000c0: b4c1 c03e 1f52 443d 3d11 23bf 8db8 21be
000000d0: 8998 9dbd d901 8abf 4127 1f3f bb6a 1bbe
000000e0: 8a58 1bbe 5e49 77be 9ab4 ce3e c886 773e
000000f0: 7475 84be 6fd2 c93e b7da e3be f56b e03e
-0.21590975 0.5580853 0.46038127 -0.15300125 0.16882917 0.15920402 -0.17901887 0.5039616
0.5943917 0.5475008 0.10575759 -0.49070928 0.07513599 0.078317404 -0.56058455 0.5528358
0.08164782 -0.1968142 0.02612452 0.14140294 -0.09212845 -0.64756984 0.40361363 0.21568859
-0.33520243 0.19452047 0.7625538 -0.16162872 0.42735463 -0.433624 0.4431812 0.29025978
0.30133197 0.032694634 0.4575538 0.3847022 0.40633014 0.45536098 0.16445151 0.024051286
-0.100794755 -0.18103816 0.25753438 -0.018667728 -0.121733874 0.4248417 0.022074252 -0.12778004
0.37647784 0.04792988 -0.6369818 -0.15793057 -0.076951094 -1.0781814 0.6216927 -0.15177433
-0.15170494 -0.24149081 0.40372163 0.24172509 -0.2587086 0.3941836 -0.44502804 0.43832365

fc_2.weight f4 [64, 64]
00000000: 869d 2d3c e884 aabb 1fd4 573d c779 a53c
00000010: 78fb 1cbc 0eb2 1fbd e646 793d bc73 7cbd
00000020: 6d43 aa3d 7698 9cbd 561a 82bd 9d5e bfbd
00000030: 0c04 a43d 16ee 0ebe e168 763d e1d8 1cbd
00000040: 17ee c93c 861c 09bc c081 21bb c954 f8bd
00000050: ae40 23bd b993 a43d 6847 9a3d 5492 eabd
00000060: 4462 733d 7463 fcbd 6f7b d0bd 8c52 50bd
00000070: 7527 fabd ba37 ba3a 44f5 083c edd5 6bbd
00000080: f785 16be 4a90 503d dafc 3cbd de53 1ebd
00000090: 5b2c 81bd 4b6e 913c 6c7f 8e3d 1568 8abd
000000a0: f6ba 303d 5c97 f03c 9db5 e53c 3803 0a3d
000000b0: f025 b53d 9dae 36bc a4e5 d23d 732d 463d
000000c0: d77e 22be 5ecd 8d3c 896e 8a3d 51bd c93d
000000d0: 4b2c fc3c 4aa1 543b 91f6 bf3c e0e2 cbbb
000000e0: 81a9 ecbd 91fc 05be bc55 1fbd 850d 0a3d
000000f0: 6775 41bc fe85 7dbd 4345 4abe 9e68 ab3d
00000100: e8d5 4abd 7650 eabd a689 9b3d d215 9bbd
00000110: 7a5e d63d 243e 42bd 13cd 953c ca97 573d
00000120: cced ae3d 9026 473d 6c5f 083e 0dc4 87be
00000130: cc1a 9b3e 9690 983d ae7c 9a3e 34a0 82bd
00000140: cefe 613d dac1 2dbf a786 57bd a607 973c
00000150: 13fc 77bd aa3c 073f c440 b43d 81d2 aa3e
00000160: 82cc cf3e 2c08 7ebe 9b0b 203e d683 853c
00000170: 7b94 013e 70d9 85be 9ac0 623e 6bdc 303d
00000180: b55b 38be b7cc 273c f5e4 0fbd 3bef efbd
00000190: dddb bebd 3d5a ccbd 1f9e d23e 38f8 f1be
000001a0: 2ca5 7abd 03bb a4bd 5958 813e 92aa 013e
000001b0: 9af5 04be bc4f 683a 079e 17be 008d d6be
000001c0: 9c7a 4c3e adc4 1d3e 1f71 ac3d 5abd 82be
000001d0: f521 a13c fa59 01bf 3a84 803d 446a 77be
000001e0: 8fd9 f23d d5c7 33be 1732 06be e8d9 073e
000001f0: 8e79 79bf 5408 c13d 8349 8fbf 2004 163e
00000200: 7e85 3fbe 8a5a 5d3c 8725 7ebd 5500 c7be
00000210: 00a3 283e a54f dc3d b3a3 9cbe 3201 0fbc
00000220: 577a 04be cb30 82be 7276 323d f9d3 cdbe
00000230: 14fe 59be caa5 153e b230 70be b0c3 573e
00000240: 991d 1abe 0390 10be 7c3e 893d 4643 a7be
00000250: 78d0 08be 825b 6fbd ed34 c33c f768 9fbd
00000260: 29b2 04bf 85f0 b33d fac7 9c3e 9b0a 95be
00000270: 8c0c 5a3e 1194 38be 5c2c 93bd 153c 1fbe
00000280: 3215 1d3e f6ae 363e 695d 763c a7bc 333d
00000290: cc10 cebc 1f9f b53d 21f6 5f3d 628c b33d
000002a0: a345 0cbe 739e 093e 1ca0 033d 0ad1 053e
000002b0: bcd4 9ebe cb98 543e 83e5 bc3c 655a e33d
000002c0: 7a87 a4be 10af 35bf 02b3 8cbe 1d88 d1bd
000002d0: 0b43 e7bc f9ce 033e 88dc fa3d 6567 96be
000002e0: db27 fc3c 2d2e d3bd 775c 013e b4c4 0c3e
000002f0: 184b 50be 5f2f 253e a1ee 91be dde8 b0bc
00000300: 7236 fbbe ce43 a7bd 78dd 87bd 7ebc 2fbf
00000310: df57 fcbc 8592 893c ab4c 113f c2d4 143e
00000320: b407 28be d8f9 863d 3412 943e 3f2d d2be
00000330: c70e 5d3e f42c 2f3e 0841 873c 3141 d7bb
00000340: 06d6 4cbf 754b 41bf 9f00 623e 54f7 b63e
00000350: d6be d8be ac6a 75be 431c a13d b0ba a53d
00000360: 41a9 143f db1a 2dbf 45e1 483e 2778 f7be
00000370: 2869 2f3e 09b4 eabe 483b d2bd ae47 d7bd
00000380: e267 133d 3d65 583e 1ce1 b63d 87e6 2f3c
00000390: 0128 f23d 6f9d a5be d2e6 623e 8da7 a2be
000003a0: 2dac 6fbd b839 ccbe 6fdc 4c3d ea4f 4c3d
000003b0: 33fe 08bf 7821 8a3e 199e 46be 6b56 30bf
000003c0: 0464 5d3e c6f4 203e c28f 0abe cf91 e8be
000003d0: 5f50 8dbe 651d 31bf 6bbf 5abd 86d5 19bf
000003e0: 13dc 5dbd 95b0 53bf 468a 57be 9588 df3d
000003f0: 0169 cdbf 73c1 ebbd 75f4 9dbf db50 dbbd
0.010596639 -0.005203832 0.05269253 0.02019967 -0.009581439 -0.038988166 0.06085863 -0.06163381
0.08313642 -0.07646267 -0.063526794 -0.09344218 0.080085844 -0.1395801 0.060158614 -0.03829277
0.024649663 -0.008368617 -0.0024643987 -0.121255465 -0.039856605 0.08035988 0.07533151 -0.11453691
0.059419885 -0.12323657 -0.10179793 -0.050859973 -0.12214557 0.0014207282 0.008359257 -0.057577062
-0.14699541 0.050918855 -0.046139576 -0.0386542 -0.06307288 0.017752787 0.069578975 -0.06758133
0.04314705 0.029369049 0.028040702 0.033694476 0.08845127 -0.0111500295 0.10297707 0.048383188
-0.15868698 0.01730984 0.06759364 0.09850562 0.03078284 0.0032444769 0.023433002 -0.006222114
-0.11555768 -0.13084628 -0.038900122 0.0337043 -0.011807776 -0.061895363 -0.19752984 0.083695635
-0.049520403 -0.11441128 0.07594614 -0.07572521 0.10467239 -0.047422543 0.018286264 0.05263499
0.0854145 0.04862076 0.1331765 -0.26516762 0.30293882 0.074494526 0.30173248 -0.063782126
0.05517464 -0.6787392 -0.05261865 0.018436264 -0.06054313 0.5282694 0.088014156 0.33363727
0.40585715 -0.24807805 0.15629427 0.016298216 0.12654297 -0.26142454 0.22143784 0.043178957
-0.18003733 0.010241679 -0.03513046 -0.117155515 -0.09319279 -0.09978149 0.41136262 -0.47259688
-0.061192676 -0.08043482 0.25262716 0.12662724 -0.12984315 0.0008861979 -0.14806376 -0.4190445
0.19968647 0.15407057 0.08420014 -0.2553509 0.019669512 -0.5052792 0.0627522 -0.24161631
0.11857902 -0.17556699 -0.13105045 0.13266718 -0.974511 0.094254166 -1.1194309 0.14650011
-0.18703267 0.013510356 -0.062047508 -0.3886744 0.1646843 0.107573785 -0.30593643 -0.008728312
-0.12937294 -0.2542785 0.04356999 -0.40200785 -0.2128833 0.14614025 -0.23456076 0.21070743
-0.15050353 -0.14117436 0.06701371 -0.32668513 -0.13360775 -0.058436878 0.023828948 -0.07783692
-0.5183435 0.0878611 0.3062132 -0.29109654 0.21293849 -0.18025233 -0.07186195 -0.15550263
0.15340117 0.1784018 0.015036919 0.043881085 -0.025154494 0.088682406 0.054678086 0.0876701
-0.1369844 0.1343935 0.032135114 0.13068023 -0.31021678 0.20761411 0.023058658 0.11101226
-0.3213461 -0.7097025 -0.27480322 -0.1023104 -0.02823021 0.12871923 0.12249094 -0.2937576
0.030780723 -0.10311542 0.12632929 0.13746911 -0.20341146 0.16131352 -0.28502372 -0.021595413
-0.49064976 -0.081672296 -0.06634039 -0.6864699 -0.030803619 0.016793499 0.5675761 0.14534286
-0.16409189 0.06590623 0.28920138 -0.41050145 0.21587668 0.17106992 0.016510502 -0.0065690507
-0.80014074 -0.75505763 0.2207055 0.3573557 -0.42333096 -0.23966473 0.078667186 0.080922484
0.5807076 -0.67619103 0.19617184 -0.48333856 0.17129958 -0.4584048 -0.10265213 -0.10511719
0.035987742 0.2113237 0.08929655 0.010736114 0.118240364 -0.32346675 0.22158363 -0.31768456
-0.05851381 -0.39887786 0.05001491 0.0498809 -0.5351288 0.2697866 -0.19396247 -0.68881863
0.21620184 0.15718374 -0.13531402 -0.45423743 -0.2760038 -0.6918548 -0.053405207 -0.60091436
-0.054164957 -0.8269132 -0.21048841 0.10914723 -1.604767 -0.11511507 -1.2340227 -0.10708781

fc_2.bias f4 [64]
00000000: 2ffc dcbb d20d b0bd 8f0b 3d3e c2cd ef3d
00000010: 7f8f 333d 5d5d 24bc 4056 11be fa43 0a3e
00000020: 4c5b 433c 0df8 063e 15d7 3ebc 1c2d d2bd
00000030: 23fc 0ebe 4f2d ca3b 6462 8b3e 1e36 0d3e
00000040: 03d8 16be 1bd8 21bd 9b16 6abd e9d1 363e
00000050: 7a51 1a3d 9ef6 003e f5c0 7d3d 62d8 12bb
00000060: bb7a 5abd 54c4 8d3d 611a 3f3d 7e3c cabd
00000070: dccf 0fbd 98d4 8c3d 191d 40be cc7f 393e
00000080: a1cd 793d 1535 223e 8830 ab3d cd49 45bd
00000090: f362 4fbe 2d88 2bbe bca7 df3d e295 29bd
000000a0: 6e66 eabd 045c fd3d b1bc 5abd 70be 9b3d
000000b0: 0bb3 d0bd 5207 023e 7ce1 b4bd 7b4d 97bd
000000c0: 200f 97be 54e5 1dbc 9f77 493e 425e 593d
000000d0: 40df 0b3e 1212 313c 8d9a 553e 967c de3c
000000e0: 3804 b4bd e8dc bdbd 40ac b7bd 42b3 db3d
000000f0: 38f5 1a3d 9c21 ae3c b81c 7d3c bc41 9bbd
-0.00674393 -0.08596386 0.1846144 0.11709167 0.04383802 -0.010032025 -0.14193058 0.13502494
0.011923622 0.13180561 -0.011647959 -0.1026251 -0.1396337 0.006169952 0.27223504 0.13790175
-0.1473084 -0.039512735 -0.057150465 0.17853512 0.03767536 0.12594077 0.061951596 -0.0022406806
-0.0533397 0.06922212 0.046656016 -0.09874819 -0.03511034 0.068764865 -0.187611 0.18115157
0.06098712 0.15840562 0.08358866 -0.048166085 -0.2025259 -0.16751166 0.10920665 -0.041402705
-0.11445318 0.12371066 -0.053402606 0.076046824 -0.101904 0.12698105 -0.0883207 -0.07387825
-0.29503727 -0.009637196 0.19674538 0.053068407 0.13659382 0.010807531 0.20859738 0.027159017
-0.08789867 -0.0927065 -0.08968401 0.1072755 0.037831515 0.02125626 0.015448742 -0.07580897

fc_mu.weight f4 [1, 64]
00000000: 82bd 963b 4df1 8dbe 540b 4c3e 1d23 8abf
00000010: e192 cd3e 36ca f63e dfa0 37bb dadb 413d
00000020: 7189 3bbc c8db 9b3c 7fcc a5bf dfb6 873d
00000030: 423b 9e3d 897e d33d 5963 a03e f18f fbbd
00000040: e094 b3bc 2dac 8bbb 3ac2 033f b143 77bf
00000050: 5c48 64bf 98d1 8dbf f93c 8d3e 8716 23bd
00000060: c63f 3ebc b544 dabe 16a6 4fbc c88c fcb8
00000070: ae59 4ebc ce26 2fbf 8bc8 fdbc 4666 8cbf
00000080: e172 043e 88a9 f23d 0f94 85be 6f65 393e
00000090: f9e5 c6bd 8488 9eba f00a bf3e 04cc e0be
000000a0: ef0e f1be fb4b 13bf 59b9 36ba 7347 fc3d
000000b0: 8dda 3bbe 988d eb3e e5f3 693d c4e2 8c3e
000000c0: 7477 2bbc 8824 1ebf c189 64bd 4a77 3cbf
000000d0: ba73 e23c 364d d23d 7046 aa3d 6364 693c
000000e0: 8e5d b7ba 1610 63ba 1f2e 2cbe eab8 09bd
000000f0: ed3c 02bf b495 433e 96d0 823d e7c5 48bc
0.004600228 -0.2772316 0.19926196 -1.0791966 0.40151122 0.4820115 -0.002801947 0.047328807
-0.011446343 0.019025698 -1.2953032 0.06626677 0.07726146 0.10326869 0.31325796 -0.12283314
-0.021921575 -0.0042624683 0.5146824 -0.96587664 -0.8917291 -1.1079588 0.2758558 -0.039816406
-0.011611884 -0.42630544 -0.012673875 -0.00012042519 -0.0125946235 -0.68418586 -0.030979415 -1.0968711
0.12934448 0.11848742 -0.26089522 0.181051 -0.097118326 -0.0012095128 0.37313032 -0.43905652
-0.47081706 -0.5753781 -0.0006970368 0.12318315 -0.1834509 0.46006465 0.05711736 0.27516758
-0.010465492 -0.6177449 -0.055795435 -0.7361952 0.027643073 0.10268633 0.08314216 0.014245125
-0.0013989673 -0.000866176 -0.16814469 -0.033623613 -0.50874215 0.19100076 0.06387441 -0.012254215

fc_std.weight f4 [1, 64]
00000000: 2616 b03d c744 db3d 5c36 a93c 2aad 253e
00000010: c706 923e fcaa 1bbe 6806 a63d f535 ed3c
00000020: 3042 b13d 39de 65be 8492 383f 538e 70be
00000030: a4d4 b13e 740b c7bd c8a4 dcbd 7746 86be
00000040: e7e9 043e 592b a93d 7e65 78be 8839 a43e
00000050: a0ad dd3e 44eb d03e a1d7 413d 526e 9139
00000060: 1b13 c6bb f728 78bd 54dc d53c de7f 06bb
00000070: ee8d d13d 09e3 cb3e b727 c73d 569d 363e
00000080: 4f14 cabe eeef 383c 1c4b 30bd a38a babd
00000090: d20e 823e ce43 d83c 282b 313d 5b47 c43e
000000a0: f7ae a93e 066b 873d f2e8 c33d b659 11be
000000b0: 5b5b 4a3e 3442 be3e 2b35 433e 760d fc3d
000000c0: ef12 5e3e 35bc 6c3d 66e5 77be 8562 9e3d
000000d0: 006d 36be 21f8 e6bb 5ff9 64be ae82 33be
000000e0: befa f53b e998 1e3d 023d 823e 4ea9 2cbe
000000f0: aedc 413e 160e 2bbc d5c4 153d c3d2 373d
0.085979745 0.107064776 0.020655803 0.16179338 0.28520796 -0.15201944 0.08106691 0.028956393
0.086552024 -0.22448052 0.72098565 -0.23491792 0.34732544 -0.097189814 -0.10773617 -0.26225635
0.12979852 0.08260221 -0.24257466 0.32075143 0.43296528 0.40804493 0.04732478 0.0002773875
-0.006044758 -0.060585942 0.026106037 -0.0020522992 0.10232149 0.39821652 0.09724372 0.17833456
-0.3946862 0.011287672 -0.04304038 -0.09108474 0.25401932 0.02639952 0.043254048 0.3833569
0.331413 0.0661221 0.09565915 -0.14194378 0.19761412 0.37159884 0.1906325 0.12307255
0.2168691 0.057796676 -0.24208602 0.07733635 -0.17815018 -0.0070486222 -0.22360753 -0.17530319
0.0075066974 0.038720045 0.2543717 -0.1686146 0.18931839 -0.01044037 0.036564667 0.044878732
