DQN/DQN138.pt (torch, 12734 bytes, 6 tensors)

fc_1.weight f4 [64, 3]
-2.2678158 -1.9495192 -0.20052235 2.6430569 -1.2952088 -0.14827622 -1.2785298 0.15725169
0.30144757 -0.087961495 -3.9582803 -0.8116656 -0.9109613 1.6966797 0.5839623 -3.139475
-0.057610895 0.48992652 2.154191 2.3070955 0.77388424 -1.6775105 6.4852242 1.5303568
2.0315619 -1.9604099 -0.8682209 -0.053492367 4.452528 1.0067426 2.78468 -0.16865523
-0.2881072 -1.9356322 3.637206 0.953943 -2.988669 0.67156893 0.13353205 -0.85010684
-2.622486 -0.5364254 0.4191931 3.6215425 0.8354038 -2.0109055 -0.46511453 0.3146039
-1.0991901 1.503141 0.44718415 -1.6099703 -0.9479331 -0.29376242 -1.5966189 -1.9117856
-0.5839883 -0.8575489 0.008662447 -0.37083796 -0.21864533 -3.0004086 -0.6580821 -1.5347841
-2.6068518 -0.6680796 -4.04832 2.9690008 0.82277906 -1.5784677 0.763479 0.21853608
0.61392766 2.352926 -0.46584326 -1.1830034 -1.3799318 -0.033466168 -1.3291705 -2.2316144
-0.42391798 -1.9959354 3.0482082 0.5760971 2.4623554 -0.9000572 -0.022004966 2.3765607
1.2375779 -0.21741273 -2.4751935 -0.36765265 -0.082787775 -0.93033344 -1.3320382 0.068406194
-2.3045185 -0.14837913 -0.390132 -0.48572248 -3.1207 -0.64397943 -1.4113989 -0.7472826
1.0346019 -0.32824218 -4.1954875 -0.90158427 3.3772995 -1.0199925 -0.7607535 -1.12099
1.9130937 1.0324693 -0.86175674 0.38963455 0.30659342 -1.1603646 0.68032503 -0.034807418
-1.5338407 -3.3801055 1.0584058 1.8149686 -3.5913332 -0.8828302 0.18706091 -2.6997259
-0.7166922 -1.2766479 0.043263342 -0.179198 -1.693099 -0.30042052 -0.60100627 -1.6229728
-1.166367 -0.821998 -0.37893602 -1.0304191 1.1264025 1.3988599 -1.7277263 -0.20007116
0.6044609 -1.3949013 -0.64900804 -1.9530567 -2.5898368 -0.5905129 -2.3330746 2.1326745
-0.26689717 -1.6922135 -1.2373793 -0.3557502 -1.6209965 -2.0799391 0.2478625 0.2403448
-3.7215023 -0.8828847 0.073002465 3.3215172 0.77680475 -2.0935602 0.5451122 0.52397424
0.73711705 0.4655695 0.44624597 0.8669694 -0.25410572 -0.64107406 0.6140602 -3.806905
-0.73555326 0.7252621 1.120031 -0.57892895 -1.1171763 -3.0059166 0.09299786 -0.8696662
-2.0008347 -0.42603678 2.9889393 0.17226137 -0.7257295 -0.7251237 -3.2714167 -0.3812328
00000000: e523 11c0 d889 f9bf bb55 4dbe d827 2940
00000010: 67c9 a5bf b9d5 17be dda6 a3bf 9606 213e
00000020: 5657 9a3e 2825 b4bd 7754 7dc0 51c9 4fbf
00000030: c234 69bf cd2c d93f 8e7e 153f 29ed 48c0
00000040: 67f9 6bbd a6d7 fa3e 44de 0940 74a7 1340
00000050: 471d 463f aab8 d6bf f586 cf40 bbe2 c33f
00000060: 1c05 0240 b6ee fabf ba43 5ebf d01a 5bbd
00000070: 1c7b 8e40 f1dc 803f 3238 3240 f5b3 2cbe
00000080: c982 93be ccc2 f7bf fcc7 6840 9c35 743f
00000090: 5a46 3fc0 f1eb 2b3f a0bc 083e 9aa0 59bf
000000a0: d0d6 27c0 2d53 09bf 7aa0 d63e 5ac7 6740
000000b0: 06dd 553f adb2 00c0 7e23 eebe c313 a13e
000000c0: 43b2 8cbf ed66 c03f 52f5 e43e 8213 cebf
000000d0: beab 72bf 0768 96be 025e ccbf 64b5 f4bf
000000e0: 4280 15bf 5388 5bbf f0ec 0d3c 79de bdbe
000000f0: 90e4 5fbe b206 40c0 1278 28bf ce73 c4bf
00000100: a9d6 26c0 4407 2bbf d68b 81c0 1c04 3e40
00000110: a6a1 523f 3b0b cabf 5c73 433f ecc7 5f3e
00000120: 5d2a 1d3f 5796 1640 0283 eebe a86c 97bf
00000130: 9ba1 b0bf d213 09bd 4222 aabf c5d2 0ec0
00000140: c70b d9be d07a ffbf d815 4340 197b 133f
00000150: 3b97 1d40 266a 66bf c243 b4bc 9219 1840
00000160: f468 9e3f 71a1 5ebe 9269 1ec0 f83c bcbe
00000170: a38c a9bd 552a 6ebf 3a80 aabf 8c18 8c3d
00000180: 3b7d 13c0 b3f0 17be 62bf c7be 9eb0 f8be
00000190: 8cb9 47c0 d6db 24bf b8a8 b4bf ea4d 3fbf
000001a0: d66d 843f 5c0f a8be 6f41 86c0 3ace 66bf
000001b0: ad25 5840 1d8f 82bf bec0 42bf 9a7c 8fbf
000001c0: 41e0 f43f f427 843f 179c 5cbf 2e7e c73e
000001d0: d0f9 9c3e d486 94bf c829 2e3f 3992 0ebd
000001e0: e454 c4bf a653 58c0 d779 873f e450 e83f
000001f0: 67d8 65c0 2901 62bf e58c 3f3e 4fc8 2cc0
00000200: 2479 37bf 3369 a3bf e734 313d ae7f 37be
00000210: 78b7 d8bf b8d0 99be 8cdb 19bf 93bd cfbf
00000220: 844b 95bf 766e 52bf e703 c2be c6e4 83bf
00000230: f52d 903f d70d b33f 2326 ddbf 74df 4cbe
00000240: f3bd 1a3f 208c b2bf 6425 26bf c3fd f9bf
00000250: e3bf 25c0 da2b 17bf 1851 15c0 bd7d 0840
00000260: bfa6 88be 749a d8bf 7262 9ebf e424 b6be
00000270: d07c cfbf b91d 05c0 abcf 7d3e f21c 763e
00000280: 182d 6ec0 bb04 62bf 5182 953d bd93 5440
00000290: addc 463f e4fc 05c0 798c 0b3f 2d23 063f
000002a0: b4b3 3c3f 205f ee3e 5a7a e43e b5f1 5d3f
000002b0: 251a 82be 6e1d 24bf 0d33 1d3f 55a4 73c0
000002c0: 384d 3cbf c7aa 393f 2d5d 8f3f b034 14bf
000002d0: a2ff 8ebf f060 40c0 a975 be3d 72a2 5ebf
000002e0: ad0d 00c0 7e21 dabe c84a 3f40 4965 303e
000002f0: 69c9 39bf b5a1 39bf e45e 51c0 f230 c3be

fc_1.bias f4 [64]
-0.6651143 -3.584319 1.13391 -0.20019865 0.49302343 0.15868612 -1.434181 0.47713315
-0.095842406 0.3815888 -1.4297426 1.5670222 0.53719956 -0.06896189 0.20904675 1.3531946
1.2156913 1.345596 1.1886989 1.1472846 0.8288856 1.01453 1.0111012 1.0800513
0.97674984 0.8210192 0.92649245 0.23656528 1.5375005 -2.1399083 1.0955429 0.42693213
1.032341 1.0993949 -0.054901283 -0.6491742 -1.1831895 0.121423215 1.0762279 0.66742474
-1.1334258 -1.1186723 0.676525 0.40893018 0.6140677 -0.09403845 -0.90552336 0.015873063
0.51141727 0.38070485 -0.161862 1.4224172 0.00400705 0.59646785 0.49828193 0.29108584
0.50400233 -3.421546 -0.28459108 -2.6205623 0.85671794 0.9973383 -1.9433072 -0.16732888
00000000: ee44 2abf 7c65 65c0 f623 913f e000 4dbe
00000010: 916d fc3e 9d7e 223e 3e93 b7bf cc4a f43e
00000020: 0649 c4bd 9b5f c33e ce01 b7bf 2f94 c83f
00000030: e985 093f e43b 8dbd 5a10 563e 7b35 ad3f
00000040: c69b 9b3f 7d3c ac3f 4927 983f 39da 923f
00000050: d931 543f 1edc 813f c46b 813f 1f3f 8a3f
00000060: 470c 7a3f 502e 523f 9c2e 6d3f 2b3e 723e
00000070: d1cc c43f 42f4 08c0 c03a 8c3f d996 da3e
00000080: c023 843f f9b8 8c3f 2be0 60bd 4830 26bf
00000090: c172 97bf bcac f83d d6c1 893f 59dc 2a3f
000000a0: 1914 91bf a730 8fbf be30 2d3f 4c5f d13e
000000b0: 8a33 1d3f 3b97 c0bd 61d0 67bf 3a08 823c
000000c0: 3eec 023f bfeb c23e 27bf 25be c411 b63f
000000d0: 924d 833b 1eb2 183f cf1e ff3e 3409 953e
000000e0: 4c06 013f 9cfa 5ac0 ecb5 91be 4bb7 27c0
000000f0: de51 5b3f 9051 7f3f 4abe f8bf 4358 2bbe

fc_2.weight f4 [32, 64]
0.29801655 -0.8703103 -0.517924 -0.1776044 -0.059178755 0.7125531 -0.7101229 0.40592334
0.2747571 0.16037346 -0.7834451 -0.42087856 0.44499287 0.98962104 -0.46217263 -0.5038404
-0.69333446 0.20120563 -0.24329913 -1.1349199 -0.12582149 -0.29628083 0.016975842 -0.0405612
-0.48686847 -0.47264174 -0.0012762849 -0.3510872 -2.060582 0.15830547 0.68479276 -0.44456986
-0.2514203 -0.35857368 0.1720374 1.4943367 -1.4082384 -0.026219856 -0.5517383 -0.71970606
-0.6117932 -0.1435867 -0.027218109 -0.10684717 0.45811105 0.16772002 0.16509795 -1.6005878
-0.104159944 0.24192116 -1.1407945 0.13047633 -0.59977746 -0.53688914 -0.5078668 0.97690433
-0.5100598 2.713841 -0.44072863 -1.1302687 -1.2886498 -0.49674192 -2.5829997 0.23065488
0.2067764 -0.7983789 -0.51525 -0.32546982 -0.60129905 0.49579468 -0.27658334 -0.057405792
-0.19428638 -0.17964509 -0.5904582 -0.36843422 -0.026201202 0.91739935 -0.34926847 -0.68553144
-0.5922751 -0.15716259 -0.36901793 -0.7694342 -0.25813308 -0.3297821 -0.07564943 0.21949446
-0.23578103 -0.27223495 -0.29110172 -0.34798932 -1.5260864 -0.04027163 0.719016 -0.13818334
0.011499159 -0.25680023 -0.24391496 1.7958442 -1.0011611 -0.07816513 -0.5665098 -0.4351839
-0.27308697 0.02296458 0.21004431 -0.16027223 0.14821583 -0.06106441 -0.3015271 -1.8453479
0.2812472 0.14230944 -0.78918517 -0.15306342 -1.1157442 -0.53290164 -0.57727784 0.10451224
-0.08037642 -1.2356128 -0.42542556 -3.2029343 -1.4732225 -0.3755658 -2.82108 0.10103752
-1.0153555 0.48570132 -3.1089323 -3.464612 -0.18865158 -0.096786186 1.7710949 -0.27819076
0.22364365 0.7362391 -2.046996 -0.39808473 -0.3682538 -0.24466331 -0.83383477 -0.12685247
0.1974955 -3.423825 -1.253289 1.2240558 -13.128379 -0.6606777 -0.32576033 -3.293991
0.36825094 -1.0718715 -10.268416 0.06123974 0.54021746 0.22631845 -3.0580904 -1.2713407
-1.4070318 -13.014567 2.0695393 0.39219695 1.2312571 0.7625243 0.2622701 -1.0600326
1.3232691 -2.4197264 -4.667538 -1.1525152 3.1602397 5.861163 0.6300734 0.5206161
1.000901 -1.0375468 0.15063429 -5.92747 0.8227013 -7.826272 -0.46772337 1.5905507
-0.28568164 -1.2065228 -2.6467395 -2.8475971 1.3445445 -7.6616626 -1.7172049 -9.062728
-0.54860157 -0.33135983 -0.29114148 -0.49190456 -0.1679723 0.19019897 -0.14300632 0.92375886
0.7639446 -0.6427571 -1.1283202 0.19148645 -0.017325714 0.46982798 -1.3750697 0.22899298
0.21554492 -0.42963666 -0.22748154 -1.7447802 0.04696078 -0.36001953 0.36518112 -0.31971368
-0.5472023 -1.2208421 0.2523673 0.4803122 0.15437035 2.8968692 -0.33369526 -0.98238224
-0.9339682 0.20714511 0.11014706 0.26070428 0.35862666 -0.20442533 0.3771412 -0.7976863
-0.29528916 -0.29710385 -0.6482093 -0.981642 0.18102524 0.08712029 -0.10820259 -0.58983886
-0.8359642 -0.39167517 -0.10368541 -0.0472799 -0.9025779 -0.2603106 -0.9601639 0.0367977
0.35263076 0.74569845 -0.38232988 0.8512332 -0.5846506 -0.18742703 -2.389821 0.08620619
00000000: a095 983e a8cc 5ebf ab96 04bf eedd 35be
00000010: 6c65 72bd e169 363f 9dca 35bf 2fd5 cf3e
00000020: f6ac 8c3e f138 243e dc8f 48bf 657d d7be
00000030: 1bd6 e33e ce57 7d3f e4a1 ecbe affb 00bf
00000040: 5e7e 31bf d908 4e3e 6823 79be 0e45 91bf
00000050: 59d7 00be 1fb2 97be ec10 8b3c 8023 26bd
00000060: d346 f9be 19fe f1be 0449 a7ba b4c1 b3be
00000070: 93e0 03c0 d41a 223e 944e 2f3f a99e e3be
00000080: 29ba 80be f896 b7be 922a 303e 6d46 bf3f
00000090: 2841 b4bf 06cb d6bc b93e 0dbf a83e 38bf
000000a0: 7b9e 1cbf 6408 13be 83f8 debc b0d2 dabd
000000b0: 888d ea3e ccbe 2b3e 700f 293e 10e0 ccbf
000000c0: cf51 d5bd 2eba 773e 8e05 92bf 969b 053e
000000d0: 048b 19bf 9171 09bf 8f03 02bf 6716 7a3f
000000e0: 4793 02bf 92af 2d40 2fa7 e1be a5ac 90bf
000000f0: 7af2 a4bf f554 febe de4f 25c0 cb30 6c3e
00000100: 31bd 533e 8f62 4cbf 6de7 03bf fba3 a6be
00000110: bcee 19bf cdd8 fd3e 559c 8dbe 5622 6bbd
00000120: 02f3 46be e2f4 37be 4528 17bf 69a3 bcbe
00000130: e7a3 d6bc afda 6a3f 51d3 b2be fd7e 2fbf
00000140: 579f 17bf 3bef 20be ebef bcbe a4f9 44bf
00000150: 052a 84be 33d9 a8be 17ee 9abd 28c3 603e
00000160: 9570 71be 6162 8bbe 490b 95be a82b b2be
00000170: cd56 c3bf ddf3 24bd 6f11 383f ef7f 0dbe
00000180: f866 3c3c 527b 83be d8c4 79be 39de e53f
00000190: 0c26 80bf 0a15 a0bd c906 11bf 6dd0 debe
000001a0: 0ed2 8bbe 3720 bc3c db15 573e 671e 24be
000001b0: e4c5 173e ad1e 7abd c361 9abe 5c34 ecbf
000001c0: a2ff 8f3e 91b9 113e 0a08 4abf a8bc 1cbe
000001d0: b5d0 8ebf 3e6c 08bf 7bc8 13bf 830a d63d
000001e0: 649c a4bd 8f28 9ebf 61d1 d9be e0fc 4cc0
000001f0: 8e92 bcbf 294a c0be 938c 34c0 c2ec ce3d
00000200: 2bf7 81bf d8ad f83e bff8 46c0 34bc 5dc0
00000210: e12d 41be d637 c6bd 3db3 e23f 056f 8ebe
00000220: d702 653e 2a7a 3c3f fc01 03c0 c3d1 cbbe
00000230: c38b bcbe 0589 7abe 3276 55bf 9de5 01be
00000240: 433c 4a3e f31f 5bc0 c66b a0bf dcad 9c3f
00000250: d70d 52c1 2c22 29bf 0fca a6be c0d0 52c0
00000260: 638b bc3e 1633 89bf 6f4b 24c1 86d6 7a3d
00000270: b14b 0a3f 06c0 673e c1b7 43c0 4bbb a2bf
00000280: 9e19 b4bf ab3b 50c1 5573 0440 0ace c83e
00000290: d599 9d3f cb34 433f 4448 863e 26af 87bf
000002a0: e260 a93f ccdc 1ac0 795c 95c0 9e85 93bf
000002b0: 5e41 4a40 a68e bb40 7e4c 213f 1947 053f
000002c0: 861d 803f 55ce 84bf e03f 1a3e d6ad bdc0
000002d0: 8d9c 523f d270 fac0 7079 efbe 2a97 cb3f
000002e0: dd44 92be 576f 9abf 2e64 29c0 083f 36c0
000002f0: 091a ac3f 572c f5c0 5fcd dbbf ef00 11c1
00000300: 2771 0cbf ffa7 a9be 7f10 95be eada fbbe
00000310: ee00 2cbe 85c3 423e 4070 12be 767b 6c3f
00000320: e091 433f bb8b 24bf cc6c 90bf 0615 443e
00000330: a8ee 8dbc 4b8d f03e 4902 b0bf 237d 6a3e
00000340: cfb7 5c3e 56f9 dbbe ecf0 68be f554 dfbf
00000350: f259 403d 7b54 b8be 05f9 ba3e 83b1 a3be
00000360: 7315 0cbf 8e44 9cbf 4936 813e 7beb f53e
00000370: 4313 1e3e 4e66 3940 1bda aabe 677d 7bbf
00000380: 8a18 6fbf d91d 543e c894 e13d 087b 853e
00000390: ea9d b73e e054 51be a718 c13e 2b35 4cbf
000003a0: 2430 97be ff1d 98be 0bf1 25bf e44c 7bbf
000003b0: ae5e 393e 1f6c b23d 5299 ddbd aeff 16bf
000003c0: c001 56bf a689 c8be 0459 d4bd 92a8 41bd
000003d0: 580f 67bf 6e47 85be 4dcd 75bf 2fb9 163d
000003e0: 058c b43e 18e6 3e3f bec0 c3be 6bea 593f
000003f0: a9ab 15bf dfec 3fbe d4f2 18c0 df8c b03d

fc_2.bias f4 [32]
-1.4395837 -1.02421 1.1280415 -0.81265324 1.3960057 -1.0571997 -1.1084219 -1.6895349
0.729447 -1.3135781 -0.49045202 1.2560799 1.0834613 0.28739113 -1.0818341 0.85408
-0.16465469 0.14442295 0.8901112 0.9644587 1.4752836 0.9272561 -1.5420889 0.60924554
0.915742 -1.7405579 -0.54282475 0.7456695 0.71760625 0.5453666 -1.5148964 1.1309068
00000000: 4744 b8bf 5019 83bf aa63 903f 0b0a 50bf
00000010: 51b0 b23f 5252 87bf c5e0 8dbf ae42 d8bf
00000020: 0abd 3a3f 5423 a8bf 871c fbbe 3ac7 a03f
00000030: dcae 8a3f ee24 933e 8a79 8abf fda4 5a3f
00000040: 3d9b 28be 9ce3 133e 54de 633f c4e6 763f
00000050: 18d6 bc3f a860 6d3f 2b63 c5bf 84f7 1b3f
00000060: 116e 6a3f 9aca debf 90f6 0abf 32e4 3e3f
00000070: 0bb5 373f 259d 0b3f 20e8 c1bf 8ec1 903f

fc_out.weight f4 [9, 32]
0.5211623 1.1422899 -3.1939828 0.014265275 -1.3791713 1.495203 0.7499217 0.9031876
0.35300872 1.4592346 -1.7241132 -1.0048089 5.1477146 -0.33750498 -0.03463244 0.23100121
0.2154162 -0.5667769 -0.6129305 -2.341128 -0.8512329 0.005068583 0.40696773 -1.2885987
4.0310326 0.42641637 -1.2480462 -0.34900272 -0.9539334 -1.0587052 0.38442504 -0.6136293
0.2154432 0.20356037 -3.1622837 0.07511822 -1.3594433 0.3614409 0.14526895 0.22423585
0.29992208 0.28453726 -1.7066584 -1.0605702 5.0963244 -0.29782698 0.10014612 0.15397939
0.3115038 -0.32641098 -0.6015791 -2.2827866 -0.8565222 0.28768554 -0.15297164 -1.2219777
3.839519 -0.042758714 -1.424287 -0.4327243 -0.97194326 -1.020646 0.18166338 -0.6498804
0.47360608 0.46800667 -3.2059035 0.20576862 -1.3326708 0.72653943 0.53096426 0.6720417
0.17969702 0.5714274 -1.6703354 -1.1503105 4.8257136 -0.3550334 0.09781773 0.07969174
0.29527923 -0.13755052 -0.58746916 -1.9361308 -0.82382387 0.6406439 0.005041416 -1.0987684
3.7791145 0.030903522 -1.4070891 -0.3945003 -1.0224873 -0.95225763 0.4802317 -0.695996
0.5570535 0.86546 -3.0850239 0.2937833 -1.1389488 0.41048336 0.31169635 0.3345646
0.02936123 0.73364747 -1.6370622 -1.2138451 3.7252102 -0.36874995 0.39222646 0.053283136
1.0595906 -0.064475335 -0.58711183 -0.35652623 -0.8858313 1.5564082 0.08096507 -0.95716596
3.5455966 0.6501648 -1.5019598 -0.5423962 -1.0891849 -0.8990565 0.32141855 -0.7977888
0.43706718 0.3682868 -3.176097 0.03187199 -1.001053 0.2411945 0.3047685 0.07089074
-0.1356228 0.7608606 -1.6327211 -1.2727212 2.929988 -0.26949733 0.21519493 -0.15704277
1.1181931 0.12676072 -0.59774834 0.68355197 -0.9231832 2.3491518 -0.15366232 -0.8424141
3.2360592 0.29671118 -1.4947044 -0.50411946 -1.1622913 -0.8190685 0.6864783 -0.86906105
0.70567274 0.79802996 -2.9518213 -0.06384713 -0.758463 0.56828654 0.42898613 0.22985592
-0.33762896 0.9381478 -1.5594069 -1.3375733 1.2456101 -0.26173395 0.07933597 -0.2674341
0.32632512 0.04068488 -0.6300086 2.9970818 -1.077197 3.6936018 0.032480586 -0.6139972
2.9822316 0.5919236 -1.4200599 -0.5778265 -1.3005536 -0.6844713 -0.027183117 -0.84402686
0.9858937 0.36803344 -2.7851887 -0.14013954 -0.49079594 1.0429854 0.5502446 1.2494463
-0.57181984 0.25228956 -1.5414095 -1.3726459 -0.2826593 -0.14481874 -0.17081699 -0.35356116
-0.96936244 -0.12310156 -0.687406 5.1373644 -1.2425292 5.0028205 0.26696342 -0.44160998
2.580884 1.2769554 -1.3264691 -0.69402504 -1.4194539 -0.57368594 -0.31702664 -0.809098
0.98573047 0.70568967 -2.8018603 -0.00027754583 -0.33706555 0.06712896 0.31037557 0.14077306
-0.67348737 0.78232795 -1.5654944 -1.4028925 -0.50435954 -0.07294461 -0.16567315 -0.37206748
-0.14268067 -0.09937484 -0.70617104 5.4644427 -1.3534496 5.1568756 0.4935149 -0.42838007
2.5315566 1.2750652 -1.2856833 -0.753651 -1.5018862 -0.54842854 0.0102958735 -0.75886196
00000000: e46a 053f 8e36 923f 376a 4cc0 e6b8 693c
00000010: af88 b0bf d062 bf3f defa 3f3f 4d37 673f
00000020: 8fbd b43e 33c8 ba3f beaf dcbf 949d 80bf
00000030: 14ba a440 74cd acbe bfda 0dbd 958b 6c3e
00000040: 1096 5c3e 4a18 11bf 03e9 1cbf 0bd5 15c0
00000050: 66ea 59bf 5b16 a63b 135e d03e cdf0 a4bf
00000060: 38fe 8040 3f53 da3e fabf 9fbf 7cb0 b2be
00000070: fb34 74bf a783 87bf 5cd3 c43e cf16 1dbf
00000080: 249d 5c3e 2172 503e db62 4ac0 95d7 993d
00000090: 3d02 aebf c80e b93e 62c1 143e 159e 653e
000000a0: 638f 993e deae 913e c873 dabf c4c0 87bf
000000b0: 1715 a340 c77c 98be 6919 cd3d c6ac 1d3e
000000c0: 6d7d 9f3e 571f a7be 1701 1abf 2d19 12c0
000000d0: 0a45 5bbf 854b 933e 99a4 1cbe c469 9cbf
000000e0: aeba 7540 c323 2fbd 094f b6bf 0a8e ddbe
000000f0: 46d1 78bf 87a4 82bf f705 3a3e 905e 26bf
00000100: 7f7c f23e 929e ef3e 862d 4dc0 02b5 523e
00000110: f594 aabf 7dfe 393f 46ed 073f ed0a 2c3f
00000120: 7f02 383e 1149 123f 8dcd d5bf 603d 93bf
00000130: 3f6c 9a40 f0c6 b5be a954 c83d 6c35 a33d
00000140: d72e 973e 0bda 0cbe 6164 16bf 22d3 f7bf
00000150: 1fe6 52bf 3d01 243f 7632 a53b 71a4 8cbf
00000160: 03dd 7140 6229 fd3c 7f1b b4bf f1fb c9be
00000170: dde0 82bf 28c7 73bf eee0 f53e cb2c 32bf
00000180: 0f9b 0e3f c98e 5d3f 0871 45c0 c46a 963e
00000190: 13c9 91bf e02a d23e aa96 9f3e 0d4c ab3e
000001a0: f686 f03c 52d0 3b3f 418b d1bf 475f 9bbf
000001b0: d869 6e40 cbcc bcbe e8d1 c83e 6b3f 5a3d
000001c0: aaa0 873f a50b 84bd f64c 16bf 9b8a b6be
000001d0: d7c5 62bf 6238 c73f 04d1 a53d d408 75bf
000001e0: 0eeb 6240 3371 263f 3840 c0bf 7ada 0abf
000001f0: 696a 8bbf 9128 66bf f990 a43e e33b 4cbf
00000200: 45c7 df3e 1690 bc3e 2c45 4bc0 348c 023d
00000210: 8122 80bf b1fb 763e 9e0a 9c3e 2a2f 913d
00000220: b4e0 0abe c3c7 423f 01fd d0bf 87e8 a2bf
00000230: ec84 3b40 8efb 89be 0f5c 5c3e d2cf 20be
00000240: f420 8f3f 90cd 013e 0906 19bf 43fd 2e3f
00000250: bc55 6cbf 8158 1640 a859 1dbe 73a8 57bf
00000260: 981b 4f40 87ea 973e 7952 bfbf f90d 01bf
00000270: f6c5 94bf 79ae 51bf 0bbd 2f3f c97a 5ebf
00000280: f8a6 343f b14b 4c3f a4ea 3cc0 49c2 82bd
00000290: a22a 42bf 3a7b 113f 12a4 db3e 5a5f 6b3e
000002a0: b4dd acbe 742a 703f a59a c7bf 9a35 abbf
000002b0: 2770 9f3f fe01 86be e67a a23d 1fed 88be
000002c0: 1614 a73e 30a5 263d 3e48 21bf 30d0 3f40
000002d0: 97e1 89bf f963 6c40 5d0a 053d ec2e 1dbf
000002e0: e2dc 3e40 4e88 173f 86c4 b5bf 70ec 13bf
000002f0: 8a78 a6bf 8339 2fbf 21af debc 2512 58bf
00000300: 8863 7c3f e16e bc3e 8840 32c0 bd80 0fbe
00000310: 9b49 fbbe 8c80 853f d5dc 0c3f dbed 9f3f
00000320: c962 12bf 192c 813e e84c c5bf dcb2 afbf
00000330: b8b8 90be 5d4b 14be a6ea 2ebe f805 b5be
00000340: 2328 78bf ac1c fcbd d7f9 2fbf 4a65 a440
00000350: 320b 9fbf 1b17 a040 6eaf 883e b41a e2be
00000360: 342d 2540 4673 a33f bdc9 a9bf a0ab 31bf
00000370: aab0 b5bf 15dd 12bf 5151 a2be 0c21 4fbf
00000380: d558 7c3f 14a8 343f ae51 33c0 9283 91b9
00000390: db93 acbe e87a 893d 8ce9 9e3e d026 103e
000003a0: ab69 2cbf a546 483f 1f62 c8bf fb91 b3bf
000003b0: b51d 01bf fc63 95bd 39a6 29be a17f bebe
000003c0: e21a 12be 0985 cbbd a0c7 34bf b7dc ae40
000003d0: d63d adbf 2005 a540 fcad fc3e a254 dbbe
000003e0: 0605 2240 5635 a33f 4591 a4bf 46ef 40bf
000003f0: cf3d c0bf d065 0cbf 06b0 283c c744 42bf

fc_out.bias f4 [9]
-1.4302155 -1.8877376 -1.6536143 -1.3281904 -1.4027249 -1.5551964 -1.5310751 -1.4298496
-2.297729
00000000: 4d11 b7bf 63a1 f1bf a2a9 d3bf 2502 aabf
00000010: 7d8c b3bf ad10 c7bf 45fa c3bf 5005 b7bf
00000020: fe0d 13c0
