Tuned_SAC/Tuned_SAC789.pt (torch, 21372 bytes, 6 tensors)

fc_1.weight f4 [64, 3]
0	0xbf771226	-0.9651207
1	0xbe9cebdb	-0.30648693
2	0x3e7d8941	0.2475939
3	0xbf6c80d1	-0.9238406
4	0x3f5a04b6	0.8516344
5	0x3e5d0977	0.21585642
6	0xbf44ce2d	-0.768771
7	0xbc23b0b7	-0.009990863
8	0x3e1ac427	0.15113889
9	0xbd9efef7	-0.077634744
10	0x3df52f83	0.11971953
11	0xbd29879f	-0.041389104
12	0x3e84acfc	0.25913227
13	0x3f2c132b	0.6721675
14	0xbe60b74a	-0.21944919
15	0xbe9835a0	-0.29728413
16	0xbf9df1e6	-1.2339447
17	0xbe2e96af	-0.17049669
18	0xbeaf9cdf	-0.3429937
19	0xbfafd505	-1.3736883
20	0xbe98e927	-0.2986538
21	0x3e91d0e9	0.28479698
22	0xbf4ea2ca	-0.80717146
23	0xbedbb013	-0.4290777
24	0xbcf6e17f	-0.030136822
25	0x3d3f6841	0.046730284
26	0xbd86223b	-0.06549498
27	0xbf2d0989	-0.67592674
28	0x3e797a78	0.24363124
29	0x3e9daee7	0.30797502
30	0xbf38c149	-0.7216993
31	0x3e40a2e8	0.18812144
32	0x3d443a22	0.047907002
33	0x3e8a1e38	0.2697618
34	0xbc9a0bb3	-0.018804407
35	0xbec35683	-0.3815194
36	0x3f5716e3	0.840193
37	0x3f7268e8	0.94691324
38	0x3ea335b4	0.3187691
39	0x3e4406ea	0.19143263
40	0xbf92bd55	-1.146403
41	0xbe8317f4	-0.25604212
42	0x3f2894af	0.65851873
43	0xbfa34108	-1.2754221
44	0xbeb75c82	-0.35812765
45	0x3ed07fd2	0.4072252
46	0x3f425fb0	0.7592726
47	0x3f0cfc51	0.55072504
48	0xbf90e574	-1.1320024
49	0xbf052e72	-0.52023995
50	0xbcf50324	-0.029908724
51	0xbf06049e	-0.52350795
52	0xbe87a0fe	-0.26490015
53	0xbebad4a6	-0.36490363
54	0x3f33521e	0.70047176
55	0x3f6d50c8	0.9270139
56	0xbee01de9	-0.4377282
57	0xbf13c395	-0.5772031
58	0xbf4aff2f	-0.7929563
59	0xbdbb4680	-0.09144306
60	0x3de16357	0.11005276
61	0xbf017f5c	-0.5058496
62	0xbc8f28b6	-0.017475467
63	0xbf454a1c	-0.77066207
64	0x3f094808	0.53625536
65	0x3e7beaec	0.24601334
66	0xbe91dfb3	-0.2849098
67	0xbf9ca6b8	-1.2238379
68	0xbe9af74b	-0.30266795
69	0x3ceeaf05	0.02913619
70	0xbfb86a83	-1.4407505
71	0xbec3e970	-0.38264036
72	0x3e32b3b6	0.17451367
73	0xbfb4b9d8	-1.4119215
74	0xbea34bbe	-0.31893724
75	0xbedf18fc	-0.4357375
76	0x3ca13b5b	0.019681623
77	0x3ecd0a5e	0.40046972
78	0x3d7e8e10	0.0621472
79	0xbec52924	-0.3850795
80	0x3ecf2f26	0.4046566
81	0x3f6de4d7	0.92927307
82	0xbf19e6a4	-0.60117555
83	0xbe9e5ca5	-0.30930057
84	0xbe836eb6	-0.25670403
85	0x3f88555c	1.065105
86	0x3e44c8fb	0.19217293
87	0xbf2b582f	-0.6693143
88	0xbc20b0e3	-0.009807798
89	0x3dbd3cd6	0.09240119
90	0xbfaaed86	-1.3353736
91	0xbeaecc7c	-0.34140384
92	0xbe2d0ff5	-0.16900618
93	0x3f26db05	0.6517795
94	0x3f0934a9	0.5359598
95	0x3ea04813	0.31304988
96	0xbf15b7a3	-0.5848333
97	0x3e6389d6	0.22220549
98	0x3ecb8613	0.39750728
99	0x3f11ea51	0.56998163
100	0xbf668d4a	-0.9005934
101	0xbf20b079	-0.62769276
102	0xbe279849	-0.16366686
103	0x3ef30c0d	0.47470132
104	0xbf244e02	-0.6418153
105	0xbf3e6d99	-0.7438598
106	0xbdf70969	-0.12062342
107	0xbef87956	-0.48530072
108	0x3e3012a4	0.17194611
109	0xbf3e4e27	-0.74338
110	0x3decfa2e	0.115711555
111	0xbf1855cd	-0.5950592
112	0xbae2a539	-0.0017291672
113	0xbee6a26f	-0.45045802
114	0x3f032c29	0.5123926
115	0x3e5e860f	0.21730827
116	0xbe66bdf3	-0.22533397
117	0x3e2793b8	0.16364944
118	0x3e30dce7	0.17271768
119	0xbeaff005	-0.34362808
120	0x3db1388b	0.08653363
121	0x3f430e75	0.76193935
122	0x3e94d502	0.29068762
123	0x3f2c1caa	0.6723124
124	0xbe15e662	-0.14638665
125	0x3bf303f6	0.0074162437
126	0xbf0e5c59	-0.5560966
127	0xbf143b18	-0.5790267
128	0x3e787d7a	0.24266616
129	0xbea673a9	-0.32510117
130	0xbf85ffb9	-1.0468665
131	0xbe5c8e32	-0.21538618
132	0xbf250b9f	-0.6447086
133	0x3fa08603	1.2540897
134	0x3e971cca	0.29514152
135	0x3ebdee0e	0.37095684
136	0xbee6b67a	-0.45061094
137	0x3f03f7cc	0.51549983
138	0x3f384be9	0.7199083
139	0x3f6f05fa	0.93368495
140	0x3e5197ca	0.20468059
141	0xbedc9873	-0.4308506
142	0x3f964f0a	1.1742871
143	0x39a67321	0.00031747765
144	0xbf207bf1	-0.6268912
145	0xbf12cdc5	-0.5734523
146	0xbe569978	-0.20956981
147	0xbe63b791	-0.22237994
148	0x3f9bf01d	1.2182652
149	0xbe9ee70f	-0.3103566
150	0xbe819a1a	-0.25312883
151	0xbf6dba92	-0.9286281
152	0xbeac5b8e	-0.336636
153	0xbf09104c	-0.5354049
154	0x3f8e7fd4	1.113276
155	0x3eebbb17	0.46041176
156	0xbf2c2218	-0.6723952
157	0xbe4ad612	-0.19808224
158	0xbe3f1f56	-0.18664297
159	0xbe6bfb08	-0.2304498
160	0x3f7a8b45	0.9786876
161	0x3e77b401	0.2418976
162	0x3f24459e	0.6416873
163	0x3edf2832	0.43585354
164	0x3ea18bcd	0.31551972
165	0xbf676c28	-0.9039941
166	0xbecdf2ce	-0.40224308
167	0x3eacd3e3	0.33755407
168	0x3eb76114	0.35816252
169	0xbf899009	-1.0747081
170	0xbe504691	-0.20339419
171	0x3ee4d92d	0.44696942
172	0xbe0d854a	-0.13820377
173	0xbb0cbf18	-0.0021476205
174	0xbf0e902e	-0.5568875
175	0x3eb80ef1	0.359489
176	0x3dfa116a	0.12210353
177	0xbe99ee5e	-0.30064672
178	0xbed78c2b	-0.42099127
179	0x3d09f601	0.033681873
180	0xbebc252e	-0.36747116
181	0xbdd39d5b	-0.103327475
182	0xbea5d09c	-0.3238572
183	0x3d29e5b7	0.04147884
184	0x3d3e59b1	0.046472255
185	0xbf163629	-0.5867639
186	0xbf771d88	-0.96529436
187	0x3cad928e	0.021188047
188	0xbe5b00ec	-0.2138707
189	0xbdc180db	-0.09448405
190	0xbf262804	-0.6490481
191	0x3e990ba8	0.29891706

fc_1.bias f4 [64]
0	0xbf0b88f1	-0.5450583
1	0x3db23d18	0.08703059
2	0x3d9e0ed7	0.07717674
3	0x3dc5ad2e	0.09652172
4	0xbe21d79a	-0.15804902
5	0xbe12ef64	-0.14349133
6	0xbe6920ec	-0.22766465
7	0xbece8800	-0.40338135
8	0x3d742d19	0.05961332
9	0xbe93bba8	-0.28854108
10	0x3e85f4e7	0.26163408
11	0xbf9f852a	-1.2462513
12	0xbcf2fb19	-0.029660748
13	0xbe46fcf5	-0.19432433
14	0xbe74c6d6	-0.23903975
15	0xbf2d734b	-0.6775405
16	0xbdf08cf8	-0.11745638
17	0xbf3871ac	-0.7204845
18	0xbf26aefe	-0.65110767
19	0x3e8fee10	0.28111315
20	0xbe4de5e6	-0.2010723
21	0x3ee7cccd	0.45273438
22	0xbe5da64c	-0.21645468
23	0x3db293fc	0.08719632
24	0xbe849d3b	-0.25901207
25	0x3e81f758	0.2538402
26	0xbe9ab53e	-0.30216402
27	0xbf219bde	-0.6312846
28	0x3f172877	0.5904612
29	0x3e3fa88f	0.18716644
30	0x3b6da66e	0.003626253
31	0xbe8eba26	-0.27876395
32	0xbe0bd51d	-0.13655515
33	0xbe9e66e0	-0.30937862
34	0xbf041e4d	-0.51608735
35	0x3e067eb7	0.13134275
36	0x3b88e826	0.004178065
37	0x3eadcff4	0.33947718
38	0x3e39c2a8	0.18140662
39	0xbe71acb2	-0.23601034
40	0x3e349e03	0.17638402
41	0xbea67624	-0.3251201
42	0x3eaf6c23	0.3426219
43	0xbe5abfcc	-0.21362227
44	0xbdf4dc60	-0.11956096
45	0xbf1b1b17	-0.6058821
46	0xbed2488e	-0.4107098
47	0x3f1bc533	0.6084778
48	0xbf10ab31	-0.5651122
49	0xbd9b4207	-0.07580953
50	0xbe91ceaa	-0.28477985
51	0xbeaac791	-0.33355382
52	0xbec9e2dc	-0.39430892
53	0xbed43eba	-0.41454107
54	0xbf4d9b1a	-0.8031479
55	0xbf418eb6	-0.75608385
56	0xbe1c6fa8	-0.15276968
57	0xbef3b0c3	-0.47595796
58	0x3e3a327e	0.18183324
59	0xbdce3ca4	-0.1007016
60	0x3d947a58	0.07249898
61	0xbee41d13	-0.44553432
62	0x3f10deaf	0.5658979
63	0xbeb04a03	-0.34431466

fc_2.weight f4 [64, 64]
0	0x3ee8853e	0.45414156
1	0xbe59209a	-0.21203843
2	0x3e9cfab4	0.3066002
3	0xbe3d471f	-0.18484162
4	0xbdae93d4	-0.0852429
5	0xbdd01c51	-0.10161651
6	0x3e3eb8d4	0.18625194
7	0xbe836b98	-0.25668025
8	0xbe23c267	-0.15992127
9	0xbed86499	-0.4226425
10	0x3e6e632b	0.23280017
11	0xbd7082cd	-0.05871849
12	0x3e2fd94e	0.17172739
13	0xbece711d	-0.40320674
14	0xbf5752d1	-0.8411074
15	0x3e930010	0.28710985
16	0x3eb6e298	0.35719752
17	0x3e052dde	0.13005778
18	0xbebe1858	-0.37127948
19	0xbd95776a	-0.07298167
20	0xbe9edef2	-0.3102947
21	0xbd0115ec	-0.031515047
22	0x3ea1aa5d	0.3157529
23	0x3d308524	0.043095723
24	0xbe0c5f49	-0.13708223
25	0xbdebc817	-0.115127735
26	0xbf4f59b4	-0.8099625
27	0xbf99d274	-1.201735
28	0xbd8b98d8	-0.06816262
29	0xbd9d0286	-0.07666497
30	0x3e3ed6e3	0.1863666
31	0x3e3c1b19	0.18369712
32	0xbee8924d	-0.4542412
33	0xbefc65fa	-0.49296552
34	0xbc48921f	-0.012241869
35	0x3e0a7a34	0.1352318
36	0xbeaae613	-0.33378658
37	0x3dad1329	0.0845092
38	0xbeb27a2d	-0.34858838
39	0xbd8a9d5e	-0.06768297
40	0xbee13bd1	-0.4399095
41	0xbd07537d	-0.033038605
42	0xbd1a8845	-0.037727613
43	0x3e4e9cc2	0.20176986
44	0xbf7b2067	-0.9809632
45	0xbeca2086	-0.39477938
46	0x3efbd495	0.49185625
47	0x3d9d3e53	0.07677903
48	0x3f57e535	0.8433412
49	0xbea03ce3	-0.31296453
50	0x3d895c02	0.06707002
51	0xbfac5d62	-1.3465998
52	0x3ecadfd7	0.396239
53	0x3c036f37	0.008022121
54	0x3e7bfdb2	0.24608496
55	0xbbf7830b	-0.0075534633
56	0xbf1dc5e6	-0.61630094
57	0xbe27a86a	-0.16372839
58	0xbe595b4e	-0.21226236
59	0x3ede26d0	0.43388987
60	0x3d2513cd	0.040302087
61	0xbeab8368	-0.33498693
62	0x3da5230d	0.08063326
63	0xbea12509	-0.31473568
64	0x3e48f9f9	0.19626607
65	0xbea0f8a7	-0.31439707
66	0xbddc03f9	-0.10742945
67	0xbd2a5d9a	-0.04159317
68	0xbea0cf32	-0.31408077
69	0x3e92c360	0.28664684
70	0xbe06da1a	-0.13169137
71	0x3c56d01f	0.013111143
72	0xbeaab3cf	-0.33340308
73	0xbd310f16	-0.043227278
74	0x3da19599	0.078898616
75	0x3dece4bd	0.11567066
76	0xbf5c5895	-0.86072665
77	0x3ddb4e8d	0.10708342
78	0xbd70bc88	-0.058773547
79	0xbf03985a	-0.51404345
80	0xbd9e92ca	-0.077428415
81	0xbe711af1	-0.23545434
82	0x3d52bc73	0.05144925
83	0x3ddb4fba	0.10708566
84	0x3de4f6d6	0.11179893
85	0xbe5198ce	-0.20468447
86	0xbcbc95c4	-0.023020633
87	0xbdf31309	-0.11868865
88	0xbd016698	-0.03159198
89	0xbdb81408	-0.08988196
90	0x3f037a5a	0.5135857
91	0x3d9c579e	0.07633899
92	0x3e21acaf	0.1578853
93	0x3e4e5039	0.2014779
94	0xbed2dfd9	-0.41186407
95	0xbf22a524	-0.63533235
96	0xbd9d2737	-0.07673495
97	0x3e5a08b3	0.21292381
98	0x3d691b4a	0.05691079
99	0xbececf6c	-0.40392625
100	0x3e8c166a	0.2736085
101	0xbe0e6518	-0.13905752
102	0xbf482f15	-0.7819684
103	0x3dcda721	0.10041643
104	0xbf2f4fe6	-0.6848129
105	0xbf050793	-0.5196468
106	0x3e6fbd3d	0.23412032
107	0xbe939adf	-0.28829095
108	0xbf934618	-1.1505766
109	0x3e437318	0.19086874
110	0xbf716e3c	-0.9430883
111	0x3f0e687c	0.5562818
112	0xbf04a933	-0.5182068
113	0xbd62ce8d	-0.055372763
114	0xbf0752b1	-0.5286055
115	0xbed58158	-0.41700244
116	0x3d56dc2b	0.052456062
117	0xbefb7de6	-0.4911949
118	0xbf1ad2a9	-0.6047769
119	0x3d4574e8	0.048207194
120	0xbda7ad29	-0.081873246
121	0x3c74990a	0.0149290655
122	0x3b8dfab7	0.004332866
123	0x3e512baf	0.2042682
124	0xbd412b92	-0.047160693
125	0xbd9cedae	-0.07662521
126	0xbea14290	-0.31496096
127	0x3ede1e78	0.4338262
128	0x3caa114b	0.020760199
129	0x3dbb48d2	0.09144749
130	0x3e2bbe25	0.16771753
131	0xbe4a1799	-0.19735564
132	0xbf00a685	-0.5025409
133	0x3e837f8c	0.25683248
134	0xbebbe6f8	-0.36699653
135	0xbf78ce71	-0.97190005
136	0xbee9aabb	-0.4563807
137	0x3dd1d843	0.10246327
138	0x3e3998b3	0.18124656
139	0xbd64e88a	-0.05588583
140	0xbe445cfe	-0.19176099
141	0xbcd38a5e	-0.025822815
142	0xbd47db15	-0.048792917
143	0xbe8cf237	-0.27528545
144	0x3ea6f89e	0.32611555
145	0xbed16411	-0.40896657
146	0xbed95441	-0.42447093
147	0x3e61450f	0.21999
148	0x3e8159d1	0.25263837
149	0x3e84f8a2	0.25970942
150	0xbeaa6047	-0.3327658
151	0xbde99a7c	-0.11406419
152	0x3d0accf7	0.033886876
153	0x3dd25cf8	0.10271639
154	0xbd65f31d	-0.056140054
155	0x3d8cccdf	0.068750136
156	0xbe0d4cda	-0.13798848
157	0x3e54223a	0.20716181
158	0x3de4cb64	0.11171606
159	0xbe91d3d2	-0.2848192
160	0xbdc042ff	-0.093877785
161	0xbf574262	-0.8408567
162	0xbf153e3b	-0.5829808
163	0xbdf990f8	-0.12185854
164	0x3e22449c	0.15846485
165	0xbe2c0f77	-0.16802774
166	0xbe072ca3	-0.13200621
167	0xbf030155	-0.5117391
168	0xbd2a0b35	-0.041514594
169	0x3cb0c70f	0.021579294
170	0x3da24796	0.0792381
171	0xbdef315d	-0.11679337
172	0xbc9362e4	-0.01799149
173	0xbc4c978e	-0.012487305
174	0xbf33e636	-0.7027315
175	0x3deba255	0.11505572
176	0xbebb1132	-0.36536556
177	0xbd337569	-0.043813143
178	0xbe6e75b4	-0.23287088
179	0xbe457878	-0.19284236
180	0xbe0f967d	-0.1402225
181	0xbefcccbc	-0.4937495
182	0xbfb6baea	-1.4275792
183	0xbe5a07ee	-0.21292087
184	0xbbe97450	-0.0071244612
185	0x3cccbc67	0.024992181
186	0x3ca61cd4	0.020277418
187	0x3e09efd3	0.13470392
188	0xbe1e8b5a	-0.15482846
189	0xbe856950	-0.2605691
190	0x3e5efd44	0.217763
191	0xbc1d18d0	-0.009588435
192	0xbe9e6340	-0.30935097
193	0x3df2ae74	0.118496805
194	0x3e8b2a41	0.27180675
195	0x3e44c36a	0.1921517
196	0x3e7e8068	0.2485367
197	0xbfc86180	-1.5654755
198	0xbfc0daae	-1.5066736
199	0xbee9ca2e	-0.45662063
200	0x3e451b90	0.19248796
201	0x3d0afb29	0.03393093
202	0x3ed48342	0.41506392
203	0xbf00ae12	-0.5026561
204	0x3d9711b8	0.073764265
205	0xbf0b0ca3	-0.5431616
206	0xbf073f86	-0.52831304
207	0xb9a8f0f4	-0.0003222298
208	0x3dccd027	0.100006394
209	0xbf63e692	-0.890237
210	0x3ed0567d	0.40690985
211	0x3f3946db	0.7237374
212	0xbe8becbf	-0.2732906
213	0x3e59c025	0.21264704
214	0xbf9cc9e2	-1.224911
215	0xbff15400	-1.885376
216	0xbf13053d	-0.5742987
217	0x3e02ba61	0.1276641
218	0xbd3618be	-0.04445719
219	0xbefea3c0	-0.49734306
220	0x3ebe5a8f	0.37178466
221	0x3c309ce3	0.010779592
222	0x3e11448e	0.14186308
223	0x3e2c9a41	0.16855718
224	0x3d7ff4c1	0.062489275
225	0xbed268f5	-0.410957
226	0xbf8a686e	-1.081312
227	0xbe8f6831	-0.2800918
228	0xbef98da1	-0.48740867
229	0xbdc6f29a	-0.09714241
230	0x3dbe582c	0.09294161
231	0xbf36db13	-0.7142803
232	0xbcf3a5a2	-0.029742066
233	0x3ec53dee	0.3852381
234	0xbd958b91	-0.07302011
235	0xbf725e49	-0.9467512
236	0x3e13367d	0.14376254
237	0xbec0d60a	-0.376633
238	0x3de14b70	0.11000717
239	0x3e54b1e9	0.20770992
240	0xbf4f9db2	-0.811
241	0xbf2acd1b	-0.66719216
242	0xbed7c939	-0.42145708
243	0xbd589374	-0.052874997
244	0x3ce3fd5a	0.027830768
245	0x3df9f406	0.12204747
246	0xbebedfe9	-0.37280205
247	0xbe94e2b7	-0.2907922
248	0xbf26e5bb	-0.6519429
249	0xbe3b87e0	-0.18313551
250	0x3d772f14	0.06034763
251	0xbe1d05c7	-0.15334235
252	0xbe32474b	-0.17410009
253	0xbf282470	-0.656806
254	0xbdbfd669	-0.09367067
255	0xbec6606c	-0.3874544

fc_2.bias f4 [64]
0	0xbceb6dc8	-0.028738871
1	0x3d163ee9	0.03668109
2	0x3e94d45d	0.2906827
3	0x3dba4f5e	0.09097169
4	0x3de1e174	0.1102933
5	0xbe349836	-0.17636189
6	0xbd557b4f	-0.05211955
7	0xbe52a2da	-0.20569935
8	0x3d9f4f87	0.077788405
9	0x3e339ad7	0.17539535
10	0x3d3b2134	0.04568596
11	0xbe8b82ba	-0.27248174
12	0x3e3bba40	0.18332767
13	0xbe678f25	-0.22613199
14	0xbe4718e1	-0.19443084
15	0x3e936c29	0.28793457
16	0x3e5300cd	0.20605774
17	0xbe3f0892	-0.18655613
18	0x3cb7de3b	0.022444835
19	0xbe0c360d	-0.13692494
20	0xbe444180	-0.19165611
21	0x3dd877ba	0.10569711
22	0x3e08d12b	0.13361041
23	0x3c924055	0.017852942
24	0x3e90f633	0.28312835
25	0x3e6bdced	0.23033495
26	0x3dfe4296	0.12415044
27	0x3cba5e3d	0.022750014
28	0x3d7ae5d4	0.061254337
29	0xbd68d575	-0.056844193
30	0x3ea12a8d	0.31477776
31	0xbe0dd1be	-0.13849542
32	0x3da5aaad	0.080891944
33	0x3e0b768d	0.13619442
34	0xbc279973	-0.010229456
35	0x3e93fdcd	0.28904572
36	0x3e3edad4	0.18638164
37	0xbd826c98	-0.06368369
38	0xbe595706	-0.21224603
39	0x3e1ac1a9	0.15112938
40	0x3df2474c	0.11830005
41	0xbde7ee28	-0.113247216
42	0xbe2f5f76	-0.17126259
43	0x3dda680d	0.10664377
44	0x3d0ded09	0.034649882
45	0xbd3e9a1b	-0.046533685
46	0xbdda932c	-0.10672602
47	0x3d9f15d8	0.07767838
48	0xbdfa7192	-0.12228693
49	0xbe65bb32	-0.2243469
50	0xbe110088	-0.14160359
51	0xbd8ae016	-0.06781022
52	0xbe5c76bd	-0.2152967
53	0xbe8afda9	-0.27146652
54	0x3d24fc95	0.040279943
55	0x3e2a65d8	0.16640413
56	0x3d2fa727	0.04288402
57	0x3e02f656	0.12789282
58	0x3eca610f	0.39527175
59	0xbe114bb2	-0.14189032
60	0x3deaadbb	0.11458918
61	0x3dfc825e	0.12329553
62	0x3da74ece	0.08169328
63	0x3dd81aa0	0.10551953

fc_mu.weight f4 [1, 64]
0	0xc01c78c2	-2.4448705
1	0xbf44762e	-0.7674283
2	0x3efde519	0.4958885
3	0x3f42b61c	0.76059127
4	0x3ef5f253	0.4803644
5	0x3e77b26f	0.24189161
6	0x3f33817e	0.70119464
7	0xbf4e8778	-0.8067546
8	0x3cee7bbb	0.029111734
9	0xbff7ebee	-1.9368875
10	0xbebd0b2c	-0.36922586
11	0x3e499fb6	0.19689831
12	0x3b7e1a64	0.0038773054
13	0xbd99f879	-0.075180955
14	0xbee29881	-0.44256976
15	0x3c410884	0.011781815
16	0x3f198175	0.5996316
17	0xbe87d02a	-0.26526004
18	0xbf910ad5	-1.1331431
19	0xbf6153f7	-0.88018745
20	0xbf00bc36	-0.5028719
21	0x3e2bba81	0.16770364
22	0x3eba21d8	0.36353946
23	0xbd7aa131	-0.06118888
24	0x3db18a7b	0.08668991
25	0xbc653221	-0.013989002
26	0xbf71a508	-0.9439244
27	0x3dbd8452	0.09253754
28	0xbe07c17c	-0.13257402
29	0xbefe80c3	-0.49707612
30	0x38305296	4.2038584e-05
31	0x3f1073ee	0.56426895
32	0xbf84e07a	-1.0381005
33	0xbf5e0806	-0.8673099
34	0x3f324d12	0.6964885
35	0x3c62d8b5	0.013845612
36	0xbc2634a1	-0.010144384
37	0x3ee62b82	0.4495507
38	0xbf7ac680	-0.97959137
39	0x3ef53a75	0.47896162
40	0x3f10a543	0.5650217
41	0x3f365e8b	0.7123801
42	0x3f72fc76	0.94916475
43	0x3c90ec48	0.017690793
44	0xbf830bec	-1.0238013
45	0xbf5d68f4	-0.8648827
46	0x3f5dee3e	0.86691654
47	0xbede159b	-0.4337586
48	0x3e99900d	0.29992715
49	0xbec710f5	-0.38880125
50	0x3f4dc5ce	0.8037995
51	0xbed749d5	-0.42048517
52	0xbd7751b8	-0.060380667
53	0xbebf14b4	-0.37320483
54	0x3e66255e	0.22475192
55	0xc036c963	-2.8560417
56	0xbf545e95	-0.8295682
57	0x401fc92a	2.496653
58	0x3bfcaf90	0.0077113584
59	0x3e841b81	0.25802234
60	0x3fdf0594	1.7423577
61	0xbf04ab85	-0.5182422
62	0x3ee113c6	0.43960398
63	0x3e86afa8	0.2630589

fc_std.weight f4 [1, 64]
0	0x3f4d34b8	0.8015857
1	0x3f0b23b7	0.5435137
2	0x3c2a69af	0.0104011735
3	0x3e3762ee	0.17908832
4	0x3ebce051	0.3688989
5	0x3e134db9	0.14385118
6	0x3f084118	0.53224325
7	0x3e3d0005	0.18457039
8	0xbf03133e	-0.51201236
9	0x3f0fcc3b	0.56171006
10	0xbe4da68c	-0.20083064
11	0xbd337e23	-0.043821465
12	0xbf1ce92f	-0.6129331
13	0x3c663e08	0.014052875
14	0xbd1d400d	-0.03839116
15	0xbeb592bb	-0.3546351
16	0xbe41ecec	-0.18938035
17	0xbd4675d3	-0.04845221
18	0x3d312bc0	0.043254614
19	0xbca70439	-0.020387756
20	0x3b2aeb4d	0.0026080192
21	0xbed329ac	-0.4124273
22	0x3d9bdf53	0.07610955
23	0xbee6fdca	-0.451155
24	0xbea1846d	-0.31546345
25	0xbf1842e6	-0.5947708
26	0x3f07c348	0.5303235
27	0x3db595b6	0.08866446
28	0xbf14ea54	-0.58170056
29	0x3da4cf8f	0.08047401
30	0xbf165a4b	-0.58731526
31	0x3f2ec164	0.6826384
32	0x3d038f30	0.032118976
33	0x3e7451d0	0.23859334
34	0xbcfc92f8	-0.030831799
35	0xbe983952	-0.29731232
36	0xbf1e5273	-0.6184456
37	0xbd8ba7e6	-0.068191335
38	0x3f412482	0.7544633
39	0xbd9d1ea0	-0.07671857
40	0x3eb0987c	0.34491336
41	0x3d395a53	0.045252156
42	0x3e8b73b2	0.27236706
43	0xbe91c232	-0.28468472
44	0x3cd86b91	0.02641848
45	0x3ee90003	0.4550782
46	0x3f29e947	0.6637158
47	0x3e610202	0.21973422
48	0x3d6526fb	0.055945378
49	0xbda318f3	-0.07963743
50	0xbb18afe8	-0.0023298208
51	0x3de9e8db	0.11421367
52	0x3be22109	0.0069009108
53	0x3e0df1cb	0.13861768
54	0xbd6166bc	-0.055029616
55	0x3e11e0ed	0.14245959
56	0x3ef196de	0.47185415
57	0x3eb24163	0.3481551
58	0xbecbb7d7	-0.39788696
59	0x3df76828	0.12080413
60	0x3f67b3ab	0.90508527
61	0x3e17e455	0.14833196
62	0xbeaa7f90	-0.33300447
63	0xbc487204	-0.012234215
